saved_models/AttentionLSTM_NVDA.pt (torch, 211266 bytes, 14 tensors)

lstm.weight_ih_l0 f4 [200, 1]
000000 c4 3e 26 3e 83 6e 5e 3e 1b 36 08 3e 46 0c 23 bf
       0.1623488 0.21721844 0.1330189 -0.636906
000010 89 76 9c be 48 2e 36 3e de 19 16 bf b0 ca 59 3e
       -0.30559185 0.17791092 -0.5863322 0.21268725
000020 65 02 78 be e7 d2 c3 be b9 76 32 3e 1d 32 88 be
       -0.24219663 -0.38246843 0.17428102 -0.26600733
000030 da 9f 06 3d ca 4a 59 bd 15 8c 4c be 5b e6 6d be
       0.03286729 -0.05304984 -0.19975312 -0.23232405
000040 30 21 45 3e f8 63 e1 be 70 c9 9d be 54 ad 65 be
       0.19250941 -0.44021583 -0.30817747 -0.224294
000050 5b 35 59 3e 44 34 5d 3e a8 ea de 3d 1e 45 ca be
       0.2121176 0.21601969 0.10884601 -0.39505857
000060 03 ef c7 be e5 1d d7 be 56 8f 88 3d 2d 79 80 be
       -0.3904954 -0.42014995 0.06667964 -0.2509245
000070 cc ac 04 bf 2b bf c9 bd 24 51 1a be 15 f4 4f be
       -0.5182617 -0.098509155 -0.15070015 -0.20307954
000080 da a6 6f 3e 0b d7 86 bd 6d 6b 21 3e 8e b9 de bd
       0.23403493 -0.06583985 0.15763636 -0.108752355
000090 4d cb 1c be fc 2d f4 be 66 86 1a 3e 06 fb a8 3e
       -0.15311928 -0.47691333 0.15090331 0.33004016
0000a0 fe 11 1f 3e af 21 63 be ce c0 28 be 3d 84 63 be
       0.15534207 -0.22180818 -0.16479799 -0.22218414
0000b0 b4 14 98 be c3 f9 da 3d 79 e0 0e be 3e ce 93 be
       -0.29703295 0.106921695 -0.13952817 -0.28868288
0000c0 63 1f f9 be ac 8f 59 be 06 59 95 be 6c 17 a2 3d
       -0.4865676 -0.21246213 -0.29169482 0.079146236
0000d0 ef d8 4d bf 0a 95 a5 bf c3 6b 21 bf 2f 51 3d 3e
       -0.8040914 -1.2936108 -0.63055056 0.18488
0000e0 12 52 70 be b9 79 85 3e 6e e9 11 bf 62 59 6c bf
       -0.23468807 0.2606943 -0.5699681 -0.9232389
0000f0 64 fb 2e 3e 9a 14 e8 be 47 fb a9 be b4 67 8f bf
       0.17088085 -0.45328218 -0.33199522 -1.1203523
000100 9e 88 e5 be 61 34 8b bd d5 4a 68 3e 0e 7a 42 bf
       -0.44830793 -0.067971 0.22684796 -0.7596749
000110 18 7d 11 bf ea 01 10 bf 40 2e a0 3e 94 64 89 be
       -0.568315 -0.5625292 0.31285286 -0.26834548
000120 ef 2f 3f bf 8a f8 46 bd 59 17 ad be 06 aa 39 bf
       -0.74682516 -0.04857687 -0.33806875 -0.7252506
000130 ce 58 fd be 43 b9 11 bf a8 87 85 bf 8b 86 be be
       -0.49481815 -0.5692331 -1.0432024 -0.37212023
000140 6d 4b 1d bd e7 01 ce 3e 90 13 46 bd 04 86 fb be
       -0.03840201 0.40235826 -0.0483585 -0.49125683
000150 13 c9 52 3e 24 cb 03 bf ab f1 4e bf 6b 58 69 bf
       0.20584516 -0.51481843 -0.80837506 -0.9115054
000160 83 c4 06 3e f5 ab 5d bd 47 49 dc 3d bc be 94 bd
       0.13160901 -0.05411907 0.10756164 -0.07262942
000170 60 da 8e be 35 f9 1c bf 68 79 da be 2a 71 1d 3f
       -0.27900982 -0.6131776 -0.4267075 0.615008
000180 8a 6c 06 bf 69 d2 c3 3c df 53 b4 3e 7d c6 32 bf
       -0.5250937 0.023904042 0.3522024 -0.6983412
000190 06 82 0a 3e d5 d7 26 3e cd 65 06 be 26 59 43 3e
       0.13526163 0.16293271 -0.13124771 0.19076976
0001a0 96 8a d8 bd e3 58 10 be 5b 84 ca 3d ec 85 41 3e
       -0.10573308 -0.14096408 0.09888526 0.18898743
0001b0 10 0e af 3d 34 95 86 3c 7e 3f 1b 3e e7 7d d4 3d
       0.08547604 0.016428567 0.15160939 0.103755765
0001c0 77 b5 e5 bd 7b 13 07 3e fd 4f 2b 3d 04 34 0f 3e
       -0.11216252 0.13191025 0.04182433 0.13984686
0001d0 3d 97 1a be b9 5f ad 3d ef 56 fb bc 73 ee 36 bd
       -0.15096755 0.08465523 -0.030681102 -0.044660997
0001e0 c9 c5 6b be 1b 90 2e 3e 46 9a 15 3e bf 03 54 be
       -0.23024668 0.1704716 0.14609632 -0.20704554
0001f0 d1 60 50 3e 9c b8 5e 3d 99 4b 0f 3e b3 5a b5 bd
       0.20349433 0.054375276 0.13993682 -0.0885519
000200 a0 39 6d 3d 14 a2 d2 bd 12 c0 d4 3d d6 3e 15 3e
       0.057916284 -0.1028482 0.10388197 0.14574751
000210 6d 9e 2e be 77 e0 d7 bd d6 dc 0f be 6a db c4 3d
       -0.17052622 -0.1054086 -0.14049086 0.096121624
000220 22 7f df 3d 9d 79 76 be 57 f5 4e 3e 93 43 08 be
       0.109129205 -0.2406983 0.20210777 -0.13307028
000230 6f 09 12 be a5 0d cb bd 19 85 d1 bd c8 e3 d8 bd
       -0.14261411 -0.09914712 -0.102304645 -0.10590321
000240 6f 53 c2 3d 59 6d 57 3d ea 33 c5 3d 02 fd c0 3d
       0.0948857 0.052594516 0.096290424 0.094232574
000250 90 88 36 3e 5e 75 82 3d c0 d4 1a 3e a2 f4 54 3e
       0.17825532 0.06370042 0.1512022 0.20796445
000260 08 e6 08 3e 34 64 e3 be 7e 3d 75 be 12 6b 49 3e
       0.13369 -0.44412386 -0.23949239 0.1966975
000270 dc 7d 1f bf e5 5c 7e 3e bf db b2 be 60 20 0d bf
       -0.6230142 0.24840124 -0.34933278 -0.55127525
000280 d0 ba 51 3e 1b 8c 56 be 44 50 64 3c 63 65 ea 3a
       0.2048142 -0.20951883 0.013935152 0.0017882999
000290 99 a3 31 be 05 80 da be 96 74 66 3e 1f 70 d3 be
       -0.17347564 -0.42675796 0.22505412 -0.4129648
0002a0 b1 58 d9 be 2e 8b 9e be 0f 04 99 3e b6 67 57 3e
       -0.4245048 -0.3096556 0.2988591 0.21035656
0002b0 7f ad 29 3d 51 fd 98 be cd 6a ce be e5 fb eb be
       0.041425224 -0.29880765 -0.40315858 -0.46090618
0002c0 6f 40 c6 3d eb b4 81 be 8b 13 17 bf 32 13 2e bd
       0.096802585 -0.25333342 -0.59014195 -0.042498775
0002d0 ed b0 68 bd 3f 71 99 be 05 15 69 3e 65 e9 88 bd
       -0.056809355 -0.29969212 0.22761925 -0.066851415
0002e0 fe b9 60 3e 16 ed fe bd 77 e3 24 bd 33 e4 04 bf
       0.2194595 -0.12447564 -0.04025599 -0.51910704
0002f0 dc d9 7a 3e f2 e8 9f 3e cc e0 41 3e 8f bf 43 be
       0.2449717 0.3123241 0.1893341 -0.19116043
000300 98 ca 8c be a3 f3 39 be ea 0c 9e be 63 7b a9 be
       -0.27498317 -0.18159346 -0.30869228 -0.3310195
000310 01 75 0c be dd dd 9e be 43 3e 25 be b4 1c 6b be
       -0.13716508 -0.31028643 -0.16137032 -0.22960168

lstm.weight_hh_l0 f4 [200, 50]
000000 8c b3 33 bf d9 30 44 bd 73 c5 5e bd 4a 0b a9 3e
       -0.7019584 -0.047898147 -0.05438752 0.33016425
000010 48 da d7 3e 2a 70 b4 bc 17 66 ca 3e 77 88 25 3e
       0.42158723 -0.02202614 0.39531013 0.16165338
000020 bc a7 ef be 11 a4 f9 3a 27 c1 34 3e 05 ae 15 bf
       -0.4680766 0.0019046088 0.17651807 -0.5846866
000030 1d 05 52 3f 2d 67 9e 3e 9d 57 1b be b7 51 c3 3c
       0.8203905 0.30938092 -0.1517014 0.023842676
000040 38 58 93 be 53 c4 ad bd 9d 71 1f be b4 53 2a 3e
       -0.28778243 -0.084847115 -0.15570684 0.16633493
000050 2e c8 69 be f1 af 32 bf a2 8c 67 bf e6 97 27 3f
       -0.22830269 -0.69799715 -0.90448964 0.65466154
000060 82 a9 ee 3d d6 1a ff be 4d 2b 9a be 0a 10 9e 3e
       0.11653425 -0.49825162 -0.3011116 0.30871612
000070 ff e9 91 bc 35 c2 12 3f 79 dc 19 be 20 46 51 bf
       -0.017811773 0.57327586 -0.1502551 -0.8174763
000080 0f 00 9f 3e 87 b9 ce 3e 5b 08 f7 be 85 a7 36 bf
       0.31054732 0.4037592 -0.48248562 -0.71349365
000090 f3 ca e8 be c3 f8 72 3e ca 15 40 be 49 e0 17 bf
       -0.45467338 0.23727708 -0.18758312 -0.59326607
0000a0 96 a2 10 3e 10 d7 10 be 9e 53 29 3f 49 cc c2 3e
       0.14124522 -0.1414454 0.66143215 0.38046482
0000b0 53 ca 81 be 1b ab fa be 6c 5f 51 be 5a da 72 bd
       -0.25349674 -0.48958668 -0.20446557 -0.059290268
0000c0 d9 98 59 bf 68 03 d4 3a 4c f0 24 be 31 76 21 3e
       -0.8499885 0.0016175332 -0.16107291 0.15767743
0000d0 3c d8 ff 3d ed c7 11 bf c9 ec 55 3e 1f 6b a0 be
       0.12492415 -0.5694569 0.20891108 -0.31331727
0000e0 3d ca d0 3e 72 e9 a6 3e e0 bd db bd b2 eb db be
       0.40779296 0.3259998 -0.10729575 -0.4295326
0000f0 3e 56 8d 3e 0d 1b c4 bd e0 93 a9 3e ba ab ee bd
       0.2760486 -0.09575472 0.33120632 -0.11653848
000100 2a ba 53 be fc 97 86 3e 2e f0 c3 be 65 15 b2 3e
       -0.20676485 0.2628783 -0.3826918 0.34781948
000110 a5 81 39 be 64 97 c0 3d 6c 38 12 bf 66 dd 92 be
       -0.18115862 0.094038755 -0.5711734 -0.2868454
000120 06 82 da be 19 cf 23 3e 63 35 f6 bd f3 90 88 be
       -0.42677325 0.1599697 -0.120219015 -0.26673087
000130 22 c8 b7 bb 83 86 b1 3d fd d7 3d bf a8 95 80 3e
       -0.0056085745 0.08668234 -0.74157697 0.2511418
000140 1d d4 39 bd 2f 56 52 bd 88 2f 40 3e 40 71 2c 3e
       -0.045368303 -0.051351722 0.18768132 0.16840076
000150 1c 36 ee be c6 4d 1d be 8b c2 d2 bd 3a 4f 76 3e
       -0.46525657 -0.153617 -0.102910124 0.2405366
000160 61 3e bb 3d 18 93 d1 be 28 6e e4 bd 1b 7a 06 3e
       0.09142757 -0.40932536 -0.11153823 0.13132517
000170 82 71 d4 3e f1 de 19 3e 91 c9 44 be 7a e2 63 3d
       0.4149285 0.15026452 -0.19217516 0.055635907
000180 b8 f5 29 be 4e 95 5b 3e a4 7a 0e bf d9 ef c1 bd
       -0.1659764 0.21443674 -0.55655885 -0.094695754
000190 c5 22 d7 be 69 37 67 be 2d 2a 47 3e 1d 09 a9 be
       -0.42018715 -0.22579731 0.19449683 -0.33014765
0001a0 52 9a bd 3e 3b e8 04 be 8f a5 12 be 3b d5 f1 3d
       0.370318 -0.12979214 -0.14320968 0.118082486
0001b0 75 ab eb be 38 0e 9a be 1e be 1a 3d 64 64 f8 be
       -0.4602925 -0.30088973 0.037778966 -0.48514092
0001c0 4d 80 40 3f 57 35 0f be 6f 54 89 be d0 55 59 3e
       0.7519577 -0.13985191 -0.2682223 0.21224141
0001d0 a1 dd 51 be 3a 9f 17 3e 49 12 ee bd ab 29 cf 3e
       -0.20494701 0.14806834 -0.11624581 0.40461478
0001e0 0e f1 88 3d e7 d5 07 bf 24 17 52 be 64 01 91 be
       0.066866025 -0.53060764 -0.2051664 -0.28321373
0001f0 7c a5 8e 3d c3 0e 86 be 42 2e 4a be 60 ac 02 3f
       0.069651574 -0.26183137 -0.19744208 0.51044273
000200 ed 94 be be 2d 20 cd 3e 4d a4 8a be e3 1f 3c 3e
       -0.37222996 0.4006361 -0.27078477 0.18371539
000210 d4 ad 6f 3e 9e 89 f5 3e 86 c9 ad be 49 f0 c0 be
       0.23406154 0.47956556 -0.33942813 -0.37683323
000220 17 b4 82 be 76 be c8 be d5 59 25 be 25 e2 87 be
       -0.25528023 -0.3920781 -0.1614755 -0.26539722
000230 da 4f 72 3d a3 f3 dc 3e 9f 37 b1 3e 79 0d 04 3f
       0.059158184 0.4315463 0.34612748 0.5158306
000240 af 7d bc be 2e 79 04 3c b8 54 1d bf 3b d4 5a 3e
       -0.3681464 0.008085532 -0.61457396 0.21370022
000250 6b 69 50 bd f0 6f 07 bf cd 0c 9a be c2 f3 7b bd
       -0.050881784 -0.5290518 -0.3008789 -0.061511762
000260 c7 7d ca bb b9 16 a1 bd 90 82 18 3e 44 20 08 3e
       -0.0061795446 -0.07865662 0.14893556 0.13293558
000270 67 28 00 3f 3c 25 dc be 16 11 7f be 40 0f 48 be
       0.5006165 -0.42997158 -0.24908862 -0.19537067
000280 7f 99 5b be 87 ef 95 be 17 61 c3 3e ab 57 e2 bc
       -0.21445273 -0.29284307 0.3816001 -0.027629694
000290 14 45 b6 be 76 af 60 3e 2b c1 5b 3d bc 49 c8 3d
       -0.35599577 0.21941933 0.053651016 0.09779689
0002a0 29 15 3a bd be 40 87 3e 42 29 57 3f 46 87 f1 bd
       -0.045430336 0.26416582 0.8404733 -0.117933795
0002b0 6b c4 8f be 74 a2 b0 3e fc 14 49 be 1b 95 49 be
       -0.28079543 0.34498942 -0.19636911 -0.19685785
0002c0 05 e4 ef bd c3 d8 8e 3e 92 39 54 be 61 21 bb 3e
       -0.11713413 0.2789975 -0.20725086 0.36548904
0002d0 55 7d 92 be 2b 65 59 3e 82 9e 7d 3d 12 74 64 3e
       -0.28611246 0.21229999 0.061918743 0.22309902
0002e0 9f 01 57 3e c0 90 82 be 8f 09 3b be f8 e1 18 3f
       0.20996712 -0.2550106 -0.18265365 0.597198
0002f0 44 60 8d bd 0d 9b 58 bd af 24 e5 3e a3 2e 0c 3e
       -0.06903127 -0.052882243 0.4475455 0.13689665
000300 78 53 4b 3d 46 55 86 3e 65 59 1a be 43 e4 04 3e
       0.04964015 0.26236933 -0.15073164 0.129777
000310 89 c8 d6 be be 19 02 3d a0 e0 75 be 5f 99 21 be
       -0.4194987 0.03176283 -0.24011469 -0.15781163
000320 ca d3 3f 3d 8a 78 cd 3d 45 2f c9 bd 5b d2 2f 3f
       0.046832837 0.100327566 -0.09823469 0.6868035
000330 3c a9 28 3d 54 59 93 be 8a d2 c8 bd fa 80 02 3d
       0.04117702 -0.2877909 -0.09805782 0.031861283
000340 a0 96 1e be b0 06 34 3f 42 ab 81 3e cd 54 63 3d
       -0.15487146 0.70322704 0.25325972 0.055500794
000350 6d c5 d8 bd e9 a3 a7 3e 11 e0 98 be 39 38 30 bf
       -0.10584531 0.3274224 -0.2985845 -0.6883579
000360 e5 43 86 be 1f ac 18 bf 05 f8 e5 3e ab 59 39 3e
       -0.26223674 -0.59637636 0.44915786 0.18100612
000370 e2 95 eb bd a2 db 79 be 71 af 24 bf 07 a5 3d 3f
       -0.11503197 -0.2440019 -0.643302 0.74079937
000380 b3 2d 69 3e 9e 0d a4 3e f8 c4 a0 be 72 0e 14 3e
       0.22771339 0.3204164 -0.31400275 0.14458635
000390 65 e0 19 3f a3 9e f1 bd 31 87 06 3e 68 c8 53 bf
       0.60108024 -0.11797836 0.13137509 -0.8272767
0003a0 7e 23 38 be 57 cd 39 3d 08 9a 0e bf f3 09 19 be
       -0.17982289 0.045361843 -0.55703783 -0.14945202
0003b0 02 a0 6a 3d d8 bc 4e 3e 90 85 d3 3d 54 c5 0b bf
       0.0572815 0.20189226 0.103282094 -0.54597974
0003c0 95 d4 47 be 0b 75 9d be 7c 1f 6a be c1 29 d2 3d
       -0.19514687 -0.3075336 -0.22863573 0.1026187
0003d0 2b dc 09 3f 55 cb 40 bf 76 28 9a bb 3b e1 39 bf
       0.53851575 -0.7531026 -0.0047045304 -0.726093
0003e0 9c fd 27 bf 43 0c 02 3e ad d0 7b be ac 36 8e bc
       -0.6562135 0.1269999 -0.24591322 -0.017360054
0003f0 da bc 78 be 45 a9 20 be 98 0c c9 bd 2b 09 03 be
       -0.24290791 -0.15689571 -0.09816855 -0.12796466

lstm.bias_ih_l0 f4 [200]
000000 cd 98 15 be 07 55 14 bd 07 d8 93 be 86 c1 71 bc
       -0.1460907 -0.0362139 -0.28875753 -0.014755612
000010 28 d8 cd be 7e 47 76 be bb 35 24 be 91 59 87 be
       -0.40203977 -0.2405071 -0.16036122 -0.2643552
000020 e0 f9 95 be 47 96 f9 bd e2 09 21 be bf ec 45 be
       -0.29292202 -0.12186866 -0.15726426 -0.19328593
000030 4d 43 be be 6b 27 1a bd 04 71 98 be 7a 38 84 3d
       -0.3716072 -0.03763525 -0.29773724 0.064560845
000040 86 50 50 be 9f d3 8d be 54 01 b0 be 0a d5 f4 be
       -0.20343217 -0.27700517 -0.34376013 -0.47818786
000050 19 6d 67 b9 18 4b 1d be b4 c1 1f be ff a4 22 be
       -0.00022070519 -0.15360677 -0.15601236 -0.15883254
000060 d0 41 0a be d5 c0 b8 be fa 60 86 be 61 90 ab be
       -0.13501668 -0.3608462 -0.26245862 -0.3350859
000070 87 45 ba 3b 45 c0 a7 be 26 ca 78 be bc 77 06 3c
       0.005684558 -0.32763878 -0.24295864 0.008207258
000080 c8 c8 ba bd 34 e4 be be 8e 04 59 be 55 0c cf be
       -0.09120327 -0.3728348 -0.21193144 -0.40439096
000090 d1 04 ea be 08 8a 83 be b4 14 30 3e d6 48 58 be
       -0.457068 -0.25691247 0.17195398 -0.21121535
0000a0 b8 0b 9b be df 07 24 bf 5b 12 f5 be 63 ef 7c be
       -0.30282378 -0.6407451 -0.47865567 -0.24700694
0000b0 d4 8a 87 be 4e d5 f8 bd 3a fe e9 be 3d aa f4 bd
       -0.26473105 -0.1215006 -0.45701772 -0.11946533
0000c0 84 ba 5a be e7 16 9a be b9 9f c3 bd 68 c8 09 be
       -0.21360213 -0.30095598 -0.09551949 -0.13455355
0000d0 27 11 0d be 19 1a 04 3e ad e4 ea be e0 40 82 be
       -0.13776074 0.1290058 -0.4587759 -0.2544012
0000e0 41 19 a4 be 19 27 61 be fc d8 38 bf 78 33 41 be
       -0.32050517 -0.21987571 -0.7220609 -0.1886729
0000f0 a4 b3 a7 be c5 e9 ce be e4 ac d3 be ef 7f 46 bd
       -0.32754242 -0.40412727 -0.41342843 -0.04846185
000100 3d 9e 04 bf ad f9 16 be 88 2b 90 be ae 88 a9 bd
       -0.5180395 -0.14743681 -0.28158212 -0.08278023
000110 65 e4 36 bf 10 8b 4d bf 38 0e 24 be 5f 71 22 bd
       -0.7144225 -0.8029032 -0.16021049 -0.0396589
000120 ec 65 4f 3d 2f ec ac 3d 4e 9a d4 be 7c 26 21 bf
       0.05063431 0.08443486 -0.41523975 -0.6294935
000130 54 d4 14 be e9 12 43 bf dc 89 91 3d b2 d3 ae be
       -0.14534122 -0.7620073 0.07106373 -0.34145886
000140 79 a2 02 bf 5e 29 b0 3d 71 88 df bc c6 65 14 be
       -0.51029164 0.0860164 -0.02728674 -0.14491948
000150 03 d3 1f be 73 c5 d6 be e7 db 68 be b7 50 39 bf
       -0.15607838 -0.41947517 -0.22740136 -0.72388786
000160 26 03 3f ba a3 f6 06 bb 68 83 d8 bd 08 6c a1 be
       -0.0007286541 -0.0020593784 -0.10571939 -0.31527734
000170 aa 2d d3 be 3e 98 5e be f6 cc d0 be 99 16 d7 bd
       -0.41245776 -0.21737763 -0.40781373 -0.10502357
000180 5f c3 03 bf 36 3e 27 be 6d 92 d5 3d d9 7b 9e be
       -0.5146999 -0.16332325 0.10428319 -0.30953863
000190 3d 44 d9 be 19 56 af be 53 a0 a9 3e bb 47 ab be
       -0.42434874 -0.34245375 0.3313013 -0.33453164
0001a0 37 20 87 3e e0 6b 59 3e 5b 4b af 3e bc b6 52 be
       0.26391765 0.21232557 0.3423718 -0.2057752
0001b0 1a 2a 1a be 15 f2 80 be 4d 14 d8 be ad 2f 41 be
       -0.15055123 -0.25184694 -0.42202988 -0.18865843
0001c0 9d 51 d0 3e 2f 28 75 be 0d 95 12 be c5 64 88 3e
       0.40687266 -0.2394111 -0.14314671 0.2663938
0001d0 0f ea 7c 3e a1 af 75 3e 3c d5 c2 be 09 54 12 3e
       0.24698661 0.23992778 -0.3805331 0.1428987
0001e0 da c7 ac 3e 9d 80 91 be a5 b5 2b be 02 3c 3c 3e
       0.33746225 -0.28418437 -0.1676851 0.18382266
0001f0 a8 1c 99 be 1b 84 9b be e3 f5 9c be 3e e7 47 3e
       -0.29904675 -0.30374226 -0.30656347 0.19521806
000200 0a b5 a9 be 0a 63 a6 3e c9 b1 8f be 54 4a 7c be
       -0.33145934 0.32497436 -0.28065327 -0.24637729
000210 49 ca b8 3e 30 b3 95 3e 74 bf b9 3e 95 72 af be
       0.3609183 0.29238272 0.3627888 -0.34267107
000220 5f 41 6e be b5 53 94 3e 78 34 9f be e8 cb 88 3e
       -0.23267125 0.28970113 -0.31094718 0.26718068
000230 1d 15 76 3e 43 30 64 3e 68 61 b1 3e 5b 68 91 3e
       0.24031492 0.22284035 0.34644628 0.2839993
000240 e8 eb bc be 77 55 58 3d 3b d8 92 be 96 fe bc 3e
       -0.36898732 0.05281588 -0.28680596 0.36912984
000250 69 b6 96 be 7e 37 61 be 80 7d e9 bd eb a8 d8 3b
       -0.29436043 -0.21993825 -0.1140089 0.0066119335
000260 80 49 88 be 20 f8 db bc 3f 22 fd be 1e f9 42 be
       -0.26618576 -0.026851714 -0.4944019 -0.19040343
000270 15 8c ea bd 59 3a 89 be cc 0d dd be ed 6d 4e be
       -0.114525 -0.26802328 -0.4317459 -0.20159121
000280 a3 05 53 be 8f 8f c6 be c3 b0 c2 be 04 2f 31 3c
       -0.20607619 -0.38781402 -0.38025483 0.010814432
000290 2b 12 d8 be 12 20 e5 bd 69 68 8b be 07 ac 9a be
       -0.4220136 -0.111877576 -0.27228096 -0.3020937
0002a0 5c d5 2a be 78 d7 b4 be 64 b3 1a be 2d ea 13 be
       -0.16682953 -0.3532064 -0.15107495 -0.144448
0002b0 c4 c6 99 bd 9e 63 b1 3d 18 38 c0 be 8a 96 43 be
       -0.07508615 0.086615786 -0.37542796 -0.19100395
0002c0 30 af 96 be 45 63 96 be f6 65 95 3d 7d af 9d be
       -0.29430532 -0.29372612 0.07294838 -0.3079795
0002d0 04 66 c3 be be 86 16 3e 54 9c 0f be 59 b1 17 be
       -0.3816377 0.14699838 -0.14024478 -0.14813747
0002e0 00 59 9f be a1 59 e8 be f3 42 15 bf 9f 36 fe bd
       -0.3112259 -0.4538088 -0.5830528 -0.12412762
0002f0 72 4d 2a bd 8d 36 1f be 1d 2b 90 be 75 1f c8 be
       -0.041577764 -0.15548153 -0.28157893 -0.390865
000300 72 27 03 bf c8 b5 ab be 06 0f d5 be 7d 03 14 3c
       -0.51232064 -0.33537126 -0.41613024 0.009034035
000310 5a cf 09 bf d4 65 fd bd a5 0f c3 bd 95 5a 7e be
       -0.5383202 -0.12372938 -0.09524468 -0.24839242

lstm.bias_hh_l0 f4 [200]
000000 21 6e 13 be 55 57 95 be 66 44 7f be 1b c0 a9 bd
       -0.1439748 -0.29168192 -0.24928436 -0.08288594
000010 34 13 08 bf c7 d8 94 be 6f f5 31 be 17 85 be be
       -0.531543 -0.29071638 -0.17378782 -0.37210914
000020 92 42 da be eb 33 4d be 33 9c b6 3b e4 85 d2 be
       -0.42628914 -0.20039336 0.0055728196 -0.41117775
000030 b1 5e e5 be 1f 39 45 bd 0e e1 c7 be fe 4b dc bd
       -0.44798806 -0.048150178 -0.3903889 -0.10756682
000040 90 75 3c be 40 ae d9 bd d0 13 66 be 03 79 09 bf
       -0.18404222 -0.10628939 -0.22468495 -0.53700274
000050 1a eb ba bd bb 3f 9a bd 2f 9c b8 bd 2c fc 93 3d
       -0.09126873 -0.07531687 -0.09014165 0.07225832
000060 48 70 0e be c9 e9 95 be 7c 90 bf bd 7f 3d d8 be
       -0.1391002 -0.29279926 -0.0935373 -0.42234418
000070 f1 91 f1 3c 36 9d 6c be 54 8a 6f be 54 d1 c8 bd
       0.029488536 -0.23106846 -0.23392612 -0.09805551
000080 87 2b 03 be 21 49 3e be 9e 9c 3b 3d a3 43 16 bf
       -0.12809573 -0.18582584 0.04580366 -0.58696955
000090 27 7c bb be ac b4 8d be b2 03 b1 3a 66 7f 17 be
       -0.36618158 -0.27676904 0.001350513 -0.14794692
0000a0 89 47 4a be 39 d7 1a bf cb 65 e4 be 88 4c bd be
       -0.19753851 -0.60484654 -0.44608912 -0.3697245
0000b0 3a 7e 67 be 34 c1 a0 bd ca 82 17 bf 26 c1 03 be
       -0.22606745 -0.078493506 -0.59183943 -0.12866649
0000c0 2a 0d 5c be ca ee d5 bc 78 f8 78 be 7b e6 c6 bd
       -0.21489397 -0.02611484 -0.24313533 -0.097119294
0000d0 12 d3 0a bd af 9b 09 be 87 64 e1 be 65 54 99 be
       -0.0338927 -0.13438295 -0.4402201 -0.299472
0000e0 e7 49 e4 be 1c 37 8f 3c 9c ea 2a bf ac b2 8d bd
       -0.44587633 0.017482333 -0.66764235 -0.069188446
0000f0 ec 9c a9 be ed ca da be e0 b6 c7 be 4c 15 29 3b
       -0.33127534 -0.42732945 -0.3900671 0.0025800047
000100 36 d4 30 bf 0d 48 bf bd 3e 34 14 be ca e6 5e be
       -0.6907381 -0.093399145 -0.14473054 -0.21767727
000110 df e7 0b bf 38 8a 33 bf 57 70 08 bb b4 50 a0 bc
       -0.5465068 -0.7013278 -0.0020818913 -0.019569732
000120 80 3f 44 3d a1 e0 9d bd 74 dd ca be 50 ea d3 be
       0.04791212 -0.0770886 -0.3962208 -0.41389704
000130 d6 ca ae be ed 68 3c bf fe 86 10 be 46 61 07 bf
       -0.34139127 -0.73597604 -0.14113995 -0.528828
000140 77 37 03 bf 91 77 45 3e 38 8f 46 bd 22 a1 67 be
       -0.5125651 0.19283892 -0.048476428 -0.22620061
000150 4d 5f 49 be 4d 4f dc be 92 df 99 bd cd ab 24 bf
       -0.1966526 -0.43029252 -0.07513346 -0.6432465
000160 68 08 8a bd 69 0f 9d bd 85 e5 99 be 70 b7 bf be
       -0.067398846 -0.07668955 -0.30057922 -0.3744464
000170 9a c6 c4 be 55 50 d8 be cc 7d 9c be a9 38 aa 3d
       -0.3843277 -0.42248788 -0.30564725 0.08311588
000180 72 89 df be 4a c6 17 be 8d 18 43 3e 99 eb e3 be
       -0.4365955 -0.14821735 0.19052334 -0.44515684
000190 1b 89 4d be 7d 9e 8a be 71 c3 91 3e 7f 05 9c be
       -0.20071833 -0.27074042 0.28469422 -0.30472943
0001a0 af 4c 8a 3e 24 54 c1 3e 85 cf c6 3e b2 5d 57 be
       0.2701163 0.37759507 0.388302 -0.21031836
0001b0 35 60 9e be 33 ea ec be ba 06 62 be fc 05 c9 be
       -0.30932775 -0.4627243 -0.22072878 -0.39262378
0001c0 20 c8 48 3e f6 39 f0 be 92 c3 9e bd 8d 66 1d 3e
       0.19607592 -0.4691922 -0.07752146 0.15371151
0001d0 a6 87 a5 3e 28 43 cd 3e 4c c5 93 be 66 9e dc 3d
       0.32330054 0.400903 -0.28861463 0.107723996
0001e0 46 be 7e 3e c9 1f ab be 08 85 cf be 15 d1 c5 3e
       0.24877271 -0.33422688 -0.40531182 0.3863608
0001f0 9c 39 41 be 0d 56 86 be bc b8 4c be b4 6d 94 3e
       -0.18869632 -0.26237527 -0.19992346 0.28989947
000200 c0 1d 95 be d5 45 7a 3e 25 41 9f be 9e 0b 12 be
       -0.2912426 0.24440701 -0.3110439 -0.14262244
000210 35 59 9a 3e c0 38 97 3e 0e 96 97 3e c6 23 0d be
       0.30146185 0.29535484 0.2960667 -0.13783178
000220 c0 7b bb be 79 2d 84 3e 32 15 a5 be 4a f6 b9 3e
       -0.3661785 0.25815943 -0.32242733 0.36320716
000230 59 30 b2 3e 81 d5 a4 3e c0 4c 82 3e 74 19 83 3e
       0.3480251 0.3219414 0.2544918 0.25605357
000240 a1 34 7e be e8 ea e9 3d 58 5b 6f be ba 76 94 3e
       -0.24824764 0.11421758 -0.23374689 0.2899683
000250 24 46 5e be 56 42 25 be 1a 62 81 be e8 39 f1 3c
       -0.21706444 -0.16138586 -0.25270158 0.029446557
000260 02 84 23 be 54 99 5d 3d 06 fd 02 bf 56 19 76 be
       -0.15968326 0.054101303 -0.51167333 -0.24033102
000270 c1 ea 92 3c db b0 b6 be d0 9f aa be 03 aa 6f be
       0.017934205 -0.35681805 -0.33325052 -0.23404698
000280 c1 89 cf bd 11 19 ad be 63 01 82 be 46 af 2e 3c
       -0.10133696 -0.33808187 -0.25391683 0.010661906
000290 05 86 b8 be a6 45 dc bd af f0 71 be 09 97 26 be
       -0.3603975 -0.10755472 -0.2362697 -0.16268553
0002a0 81 2a d8 be 2e b7 b2 be 4a 91 12 bc 99 f7 23 be
       -0.42219928 -0.3490538 -0.008945772 -0.1601242
0002b0 ee 10 54 be aa cc 09 be bf 12 7e be e6 90 20 be
       -0.20709583 -0.1345698 -0.24811839 -0.15680274
0002c0 8a 14 b7 be d7 0b f9 be d4 74 ff 3c 91 b9 9e be
       -0.35757858 -0.48641846 0.031183638 -0.3100095
0002d0 84 f1 a8 be 7a d3 21 3c 9d 07 88 bc ef 8d 85 be
       -0.32996762 0.00987708 -0.016605193 -0.2608485
0002e0 0c 3b de bd 1b 5c 96 be e1 b7 fe be 61 e3 b3 be
       -0.10851106 -0.29367146 -0.49749663 -0.35134414
0002f0 c1 b4 cf 3c cc ef f5 bd c2 09 04 be 4f 5b f3 be
       0.025354745 -0.12008628 -0.12894347 -0.475306
000300 52 ff de be ce 4e d1 be 06 7f f6 be 2c 69 1e be
       -0.4355417 -0.40880436 -0.48143786 -0.15469807
000310 8e bd a5 be 53 ea a3 bd 63 41 7b bd d0 1d cd bd
       -0.3237118 -0.08003678 -0.061341655 -0.10015452

lstm.weight_ih_l1 f4 [200, 50]
000000 b6 57 34 3e d4 26 ec 3d 6f 7d 8a bd 5f 2b 10 bf
       0.17611584 0.115308434 -0.06762206 -0.5631618
000010 61 0c e8 3e 5d cb 66 bc d2 3d ba 3e 9a 10 1a 3e
       0.45321944 -0.0140865715 0.3637529 0.15045395
000020 3e ca e7 be df 87 da be de b9 85 3e 5b 44 2d be
       -0.45271486 -0.42681786 0.26118368 -0.16920607
000030 32 91 5d 3d 6f 5c 86 be c5 0a a2 bb 31 d2 b9 3e
       0.054093547 -0.26242396 -0.0049451315 0.36293176
000040 75 01 9c be 12 82 d8 3e c3 66 ab be 98 0d 84 3e
       -0.30469862 0.42286736 -0.33476838 0.2579162
000050 4b ad 98 be a4 6d 3a 3e 25 40 9f bc 89 87 22 3e
       -0.29819712 0.18205887 -0.019439766 0.15872015
000060 98 a5 93 be 06 ed d1 be e6 f6 e9 bc 23 aa 57 3e
       -0.28837276 -0.41001147 -0.028560113 0.21060996
000070 f7 71 d1 be 07 ba b1 3d 76 93 12 be 7c 6f 57 3e
       -0.4090726 0.0867806 -0.14314064 0.21038622
000080 f7 bd 9b be 3c 55 42 3e df 44 50 be c9 c5 93 bd
       -0.3041837 0.18977827 -0.20338772 -0.07215459
000090 ce b8 17 3d 6b 35 13 3f ee bf 07 3e 77 e2 58 be
       0.037041478 0.57503384 0.13256809 -0.2118014
0000a0 07 7f 74 be 18 a7 aa 3e dc 06 0c 3e 9f ee 5a 3e
       -0.23876582 0.33330607 0.13674492 0.21380089
0000b0 11 e9 87 be 4c b4 40 3e 9e bf 78 bd d7 d1 5b 3e
       -0.26545003 0.18818778 -0.060729615 0.21466766
0000c0 c3 ae a7 bd e5 de ad be b8 8c f9 3d f0 a1 ef 3d
       -0.0818763 -0.33959118 0.12185043 0.11700809
0000d0 1b b5 d1 bd fa d4 f2 be 92 66 e0 3e 00 fb d6 bd
       -0.10239621 -0.47428113 0.43828255 -0.10497093
0000e0 64 0c b8 3e c2 a7 53 3e 16 af 7b be 7f 15 8e be
       0.35946953 0.20669463 -0.24578509 -0.27750775
0000f0 18 32 98 3c 93 cb 16 be 66 1f f7 3d f8 d3 1a be
       0.018578574 -0.14726095 0.12066536 -0.15119922
000100 af 52 85 bc ad 1d 14 3e ce 04 c6 bd df 31 40 3e
       -0.016274778 0.14464445 -0.09668885 0.18769024
000110 a4 ca da bd af 88 1e 3e 8c 98 5d be 48 19 17 3e
       -0.10683182 0.15481828 -0.21640223 0.14755738
000120 32 59 05 3e bf 2d d8 3e 89 69 e7 be 26 ae 25 be
       0.13022307 0.42222401 -0.45197704 -0.16179714
000130 43 ca 51 3d e3 07 91 3d 4f 9b b2 be 32 2a 38 bb
       0.051218282 0.070815824 -0.34884116 -0.0028101322
000140 1b 80 98 bd 34 6c 3e bd 19 db 51 be 9c c6 77 3d
       -0.07446309 -0.04648991 -0.20493735 0.060492143
000150 24 ff 4d be aa 33 86 bb da 6f 9c bc 4d 00 52 3f
       -0.2011686 -0.0040955143 -0.019096304 0.8203171
000160 6a 15 11 3e fa 93 d1 bd 11 1a 3a be d3 af 4a 3d
       0.14168325 -0.102333024 -0.18174006 0.049484085
000170 81 bc 66 3d e3 a6 a1 3e bb 1f 88 be 48 2c c6 3d
       0.056332115 0.31572637 -0.26586708 0.09676415
000180 f5 6c 03 be af d6 0f 3e ee 33 c4 be d7 7e 05 3d
       -0.12834533 0.14046739 -0.3832087 0.032591667
000190 45 e3 95 3d 8e 56 36 bd 08 5e c4 bd c9 e7 e5 3e
       0.07318739 -0.04451614 -0.095882475 0.449034
0001a0 39 a7 b4 3d 2b 57 d8 bd a2 6f f2 3e a1 9c a1 3d
       0.08820958 -0.10563501 0.47350794 0.07891203
0001b0 49 a7 b1 bb c0 c6 cd 3e f3 f9 81 3c 18 07 b7 3d
       -0.0054215533 0.40190697 0.015866255 0.089369
0001c0 d0 7e 0d be 8e 71 cc 3d b8 09 b3 3d 31 52 76 be
       -0.13817906 0.09982596 0.08742088 -0.24054791
0001d0 ef 34 98 bd 4e 14 08 be af 6a b3 3e 6d 63 a5 bd
       -0.07431971 -0.13288996 0.3504233 -0.080756046
0001e0 65 5f 05 be 7b 0f 2d 3e 7f ab e7 bc b5 5a c2 3e
       -0.13024671 0.16900437 -0.028280018 0.3795983
0001f0 02 93 83 be 2c db e2 3e d3 b9 f8 bd 41 67 95 3c
       -0.25698096 0.4430784 -0.12144818 0.018237712
000200 08 f2 9d 3e 07 de 0b 3d fc c2 b1 bd 2e 78 c1 be
       0.30848718 0.03414729 -0.086797684 -0.37787002
000210 fc 75 e2 bd 3b d8 0d be 57 a5 31 be 2e 55 8f bd
       -0.1105766 -0.13852017 -0.17348228 -0.069986686
000220 d5 da 1b bd c7 b5 1a 3f 48 e5 f6 3c e3 2c 0e be
       -0.03805049 0.6043362 0.030138627 -0.1388431
000230 02 87 da bd 42 0f 07 be 50 a6 b1 bd 6b 8f 62 3d
       -0.10670282 -0.13189414 -0.086743 0.055312555
000240 ca ae 47 3e 71 de 5a bd 17 fd 8b bd 97 e2 f7 be
       0.1950027 -0.053434793 -0.068353824 -0.48415062
000250 52 eb a0 be a3 b7 b3 3e 80 40 ca 3d 2f 68 2a 3e
       -0.31429535 0.3510104 0.09875584 0.16641305
000260 4a cc 2a 3d 4f 27 9d be be 29 a9 3e ba 9d 1a bd
       0.04169873 -0.30694053 0.3303966 -0.037748076
000270 2a 8e 14 3f b0 0d 56 3e d3 45 99 be 7e 01 96 be
       0.58029425 0.20903659 -0.29936084 -0.29298013
000280 4e bc 0a 3e 45 6c 8b be 96 31 8f 3e d4 7f 1d 3a
       0.13548395 -0.2723104 0.2796752 0.00060081226
000290 b0 df c2 bc 5b 0a 37 3e e1 cc 79 be 8a 65 c4 3e
       -0.023788303 0.17875044 -0.24394561 0.38358718
0002a0 87 b5 e9 be ba 00 2c 3e c1 e1 c6 be 79 8f 96 bb
       -0.45646307 0.16797152 -0.38844112 -0.00459474
0002b0 68 06 32 be 51 d4 db 3e d9 6b a7 be be 6b f5 be
       -0.17385256 0.42935422 -0.3269947 -0.47933763
0002c0 11 ec 9b 3c b8 3d c7 3e 60 e3 7a be a0 3c a0 3e
       0.019033464 0.38914275 -0.24500799 0.31296253
0002d0 9d 90 58 be 0b 9d 79 be ff a5 4b be 39 9b c4 3d
       -0.21148916 -0.24376313 -0.19887541 0.09599919
0002e0 25 21 44 be ce 4e da bc 42 2e 2b be 1c 08 d7 3e
       -0.19153269 -0.026648905 -0.16716865 0.41998374
0002f0 12 ec 5c 3e 10 92 f1 bc 64 f1 cd bd 15 b9 e8 3e
       0.21574429 -0.029488593 -0.10055807 0.45453706
000300 e1 22 d4 3e dc fa c0 3e dd f8 e7 be e2 c0 45 3d
       0.4143286 0.3769139 -0.45307055 0.04827965
000310 4e 52 0c be 4e 0d 65 3e da 04 48 be d0 74 51 be
       -0.13703272 0.22368357 -0.195331 -0.20454717
000320 ae 26 31 3e de 7a 7a 3c 20 d2 62 be 44 38 cd 3e
       0.17299911 0.015288083 -0.22150469 0.4008199
000330 6b d9 96 3c 0e 6f 11 be d1 b7 73 3e 14 1a 2f 3e
       0.01841422 -0.1420252 0.23800589 0.17099792
000340 ad 47 25 bc 45 d1 b2 3e 7a d9 70 3e 2e b0 17 be
       -0.01008789 0.34925285 0.2352046 -0.14813301
000350 ca 18 67 3d 75 17 6c 3e 36 a2 c0 bd 6c 78 8f be
       0.056420125 0.23055823 -0.09405939 -0.28021562
000360 c8 aa 81 bd 87 52 bc be be 61 f1 3e 3f c3 bf bc
       -0.06331402 -0.36781713 0.47144884 -0.02340853
000370 95 c2 10 3b 5c 63 66 bc 4c 77 b7 3d ec 35 1a 3f
       0.0022088636 -0.014061775 0.08958301 0.6023853
000380 ad 16 aa be 1a 00 76 3e 26 87 e3 3d 9f b1 95 3d
       -0.33220425 0.24023476 0.11109762 0.07309269
000390 f8 5f 95 3e 96 68 db 3d d7 97 05 3e 12 cb ca be
       0.2917478 0.107133076 0.13046204 -0.39608055
0003a0 1b 71 b7 bd 41 9a af bc 40 8d 86 bd 50 92 2f be
       -0.0895712 -0.021435859 -0.0656991 -0.17145658
0003b0 c0 2a df 3d e2 39 81 3f 53 ef ca 3d 5c 9c 60 bc
       0.10896826 1.009579 0.09908929 -0.013709154
0003c0 b6 3f 53 be d1 e0 b9 bd 72 b0 cf 3c 9d d4 e5 3d
       -0.20629773 -0.090760835 0.02535269 0.112221934
0003d0 34 b0 7e 3e a3 1b 01 be 07 df 44 3d ae 80 d7 be
       0.24871904 -0.12608199 0.048064258 -0.42090362
0003e0 c1 9f 06 bf 48 cc 28 3e ba 68 b4 bd 8e da 5d 3d
       -0.52587515 0.16484177 -0.088090375 0.054163508
0003f0 78 ad f2 3c e4 be 05 3f 99 45 dc bd 88 a9 03 3e
       0.029623732 0.522444 -0.10755462 0.1285764

lstm.weight_hh_l1 f4 [200, 50]
000000 02 36 69 3d 56 a2 de 3d d1 7e e2 3e 46 ec 95 3e
       0.05693627 0.10870807 0.44237378 0.29281825
000010 94 6f a7 3d 08 58 1d bf 44 79 65 3e 32 85 13 bf
       0.08175579 -0.6146245 0.2240954 -0.57625115
000020 82 6a 11 3e 87 ce 56 3e 2c db f0 3e 4e 4e 97 3e
       0.14200786 0.20977221 0.47042215 0.2955193
000030 ee b8 49 3e 6b 34 d8 bd c4 d6 60 be 7a c4 65 be
       0.19699451 -0.10556873 -0.21956927 -0.22438231
000040 5f 56 63 3d d4 4b 52 3d 62 05 a4 be cf 12 6d be
       0.05550229 0.051341847 -0.32035357 -0.23151706
000050 7c fe 89 be 49 f5 2d 3e 7c a8 88 be 51 64 0f be
       -0.2695197 0.169881 -0.26691043 -0.14003111
000060 76 c1 81 3e d6 32 d7 3d 90 af d4 3e 69 96 c7 bd
       0.2534291 0.10507743 0.41540194 -0.09745485
000070 e1 1d b0 be f2 1e 48 3e e6 f4 83 be 7c eb a6 be
       -0.34397796 0.19543055 -0.2577278 -0.32601535
000080 79 c1 3e 3d 3a e4 08 bd 29 8e 19 3e d6 65 e8 be
       0.04657123 -0.03342078 0.14995636 -0.45390195
000090 34 36 89 be 2d 41 40 3e a3 af c5 3e 1d 2f 45 bd
       -0.26799166 0.18774863 0.38610563 -0.048140634
0000a0 06 21 ed bd 93 49 1d 3e 8d 61 93 3e b4 05 9e 3e
       -0.11578564 0.15360098 0.28785363 0.30863726
0000b0 ef 25 85 bd c9 1e 05 bf e6 29 3e be 20 75 bd 3e
       -0.06501376 -0.520001 -0.1857067 0.37003422
0000c0 fb cf 2a 3e 61 e3 21 3e 07 e4 07 be 68 04 43 3d
       0.16680901 0.15809394 -0.1327058 0.047611624
0000d0 7a 33 2f 3e eb 79 d5 3e 25 f6 77 be ac f2 a0 be
       0.1710948 0.4169458 -0.2421499 -0.31435144
0000e0 33 08 bc 3e ee 79 7c be 5f 8c 69 3e 7a b1 d3 3d
       0.36725006 -0.24655887 0.22807454 0.10336585
0000f0 8b 53 35 3e 20 cf d5 3d a7 34 a1 3c 93 08 b4 be
       0.1770765 0.104398966 0.019678427 -0.35162792
000100 ce 28 bb be 3e 51 c6 3c 3b 0f f8 bd a1 12 72 bc
       -0.3655457 0.024208661 -0.1211228 -0.014774949
000110 ce f3 11 3d 7c 8c 1f be a9 4c 3a be e4 ea 59 3e
       0.0356329 -0.15580934 -0.18193306 0.2128101
000120 98 5b b6 be 37 6c 22 3d d9 cc 46 3e 7d 86 ca 3e
       -0.35616755 0.039653983 0.1941408 0.3955573
000130 48 63 a4 3d b9 32 a1 3d 0b c6 33 be 5a 97 f7 3d
       0.08026749 0.07871003 -0.17556016 0.12089415
000140 bc 81 cf bd ec 75 61 be 8d ce f6 3c 83 7d d1 3d
       -0.10132167 -0.2201764 0.030127788 0.102290176
000150 2d f8 07 3d dc 40 8a be 1f 10 08 bf 58 b7 55 3e
       0.033195663 -0.2700261 -0.531496 0.20870721
000160 7e c8 ad 3e b4 29 b9 3d 8b ee 88 be cf 07 06 3d
       0.33942026 0.09041157 -0.26744494 0.03272229
000170 1a 10 b7 3d d6 54 c8 3d 34 01 1f 3e 4a 92 df be
       0.08938618 0.09781806 0.15527803 -0.43666297
000180 e5 e6 c2 bd c5 8c cf 3d 31 ea 10 bd 62 49 2a bd
       -0.09516696 0.101342715 -0.035379592 -0.04157389
000190 a1 05 ac 3e f2 c2 49 3e 4f fc de 3c 82 2a b9 3e
       0.33598045 0.19703272 0.02721992 0.36165243
0001a0 b2 cb db be d4 b6 40 bf 31 aa 00 3f d5 9a fc be
       -0.42928845 -0.75278974 0.5025969 -0.49336877
0001b0 03 65 a3 be 54 98 01 3e 36 6c d6 3e 6a 03 eb bc
       -0.31913003 0.12655765 0.41879433 -0.028688151
0001c0 ba a6 e3 bd be 40 59 3d b8 2c 52 be f6 75 66 be
       -0.11115785 0.05304026 -0.20524871 -0.22505936
0001d0 83 dc 92 be 73 64 42 3e f6 69 2e be f4 1d 95 3c
       -0.28683862 0.18983631 -0.17032608 0.01820276
0001e0 00 f5 14 bf 32 38 2a 3e a3 d7 a0 be 13 bc 95 3e
       -0.5818634 0.16623 -0.31414518 0.29245052
0001f0 e8 55 ed 3e 42 ed 3d 3f 9f b0 3a 3e 0a 42 95 3e
       0.46354604 0.7419015 0.18231438 0.29151946
000200 47 3a 9b 3d 5a 1c 0d 3e 71 3d e8 3d 8f cb 2e 3e
       0.07579475 0.13780347 0.11339844 0.17069839
000210 41 e7 3b 3e 49 91 ea 3e 2a 32 83 bd 03 7a 05 be
       0.18349935 0.4581397 -0.064060524 -0.13034825
000220 ab 90 57 3e 06 d7 73 be fe 0b 1e 3f d3 50 8b be
       0.2105128 -0.23812494 0.6173705 -0.272101
000230 3d df 5b be cb f2 e2 be bd 6d 42 3e e8 e5 ee bb
       -0.21471877 -0.4432586 0.18987174 -0.0072905906
000240 79 1f 6e 3e 75 b0 cd be d2 01 f6 bd 1c ab d6 3d
       0.23254193 -0.4017369 -0.12012066 0.10481855
000250 70 a0 e1 3e 7f 0a 3b 3d 0c 74 33 be b1 62 26 3d
       0.44067717 0.045664307 -0.17524737 0.040621463
000260 17 e3 14 3f fd e7 db 3e aa 35 60 3e b9 48 00 bf
       0.5815901 0.4295043 0.21895471 -0.50110966
000270 7d 32 8e 3e 10 2a 1d bf 5d 8a 92 3e 54 4e bd 3e
       0.27772895 -0.6139231 0.28621188 0.36973822
000280 fd 98 bd 3e 80 a7 ff 3e 4d 4e 54 bd 13 20 44 be
       0.37030783 0.4993248 -0.051832486 -0.1915286
000290 c3 d1 20 be da eb 35 be 53 6a 37 be ef 4d 3a be
       -0.15705018 -0.17765751 -0.17911653 -0.18193792
0002a0 a5 00 ba be 6b ae 90 be 50 df d7 be 13 14 ca 3e
       -0.36328617 -0.2825807 -0.4216256 0.3946844
0002b0 ff 49 84 be d3 bc 0f be 0f 90 dc 3e e4 81 54 be
       -0.25837705 -0.14036874 0.43078658 -0.20752674
0002c0 0b 77 cf 3e a9 6d fa 3d 8d c5 bb be 76 4b d1 3e
       0.4052051 0.12227947 -0.36674157 0.40877885
0002d0 20 c0 86 be 5b 8b d5 3b 54 37 fb bc 5f 5e e8 be
       -0.26318455 0.0065168566 -0.030666031 -0.453845
0002e0 cd 53 fc bc 19 54 1e bf 20 b0 54 be 7a 82 bd 3e
       -0.030801678 -0.6184707 -0.20770311 0.37013608
0002f0 30 2c 04 3f ae fe 46 be 92 b9 ac 3c 04 c1 f4 3d
       0.51629925 -0.1943309 0.02108458 0.11950877
000300 98 92 94 3e d7 fa a3 3e 8d 1d 59 be e2 cb d6 be
       0.29018092 0.32027313 -0.21202679 -0.41952425
000310 86 91 17 bf a9 41 7a 3e a7 02 a5 3e 61 16 81 3e
       -0.59206426 0.2443911 0.32228586 0.25212386
000320 98 15 33 3e f8 a2 91 3d 15 32 f9 bd 3b ef 62 bb
       0.17488706 0.07111162 -0.121677555 -0.0034627456
000330 08 dc de bc 47 55 ee bd ce cf 66 3e ee 4b 89 bd
       -0.027204528 -0.11637359 0.22540209 -0.067039356
000340 61 b8 32 be 6f b6 cb bb 5f 81 78 3e ee c1 33 3d
       -0.17453147 -0.006216816 0.24268101 0.043886118
000350 23 85 98 bd 30 e7 5d bd 89 be a6 bd 5d 27 af 3e
       -0.07447269 -0.054175556 -0.081418104 0.3420972
000360 8d 65 cf bc 68 a2 4c bd f3 8f 3d 3d d0 06 4f 3e
       -0.025316978 -0.04995957 0.04627986 0.20217443
000370 83 3b c7 be 92 4e 35 3e ae 47 de bd ab 41 46 3d
       -0.3891259 0.17705753 -0.108535156 0.04840247
000380 7b 1d 00 be 15 8c b4 3e d0 f4 03 3e 89 b8 d0 3d
       -0.12511246 0.35263124 0.12886357 0.10191447
000390 03 c7 fd bb d0 b4 8b bc 94 f9 fa 3c a6 aa 5e 3d
       -0.0077446713 -0.017053992 0.030636586 0.05436196
0003a0 bf 15 35 bd 59 8b 49 3e 0d 41 50 3d 3a 14 93 3d
       -0.04421019 0.19682063 0.050843287 0.07181592
0003b0 a8 25 37 bc 35 57 e1 bc a8 67 28 3e f9 da 4d 3e
       -0.011178412 -0.027507404 0.16445792 0.20103063
0003c0 55 c6 4c be ec 0d f1 bd c1 9c 3f 3e f7 45 9e 3d
       -0.19997533 -0.117702335 0.1871214 0.077281885
0003d0 79 41 6d bb 91 a6 4c bd ff 43 5e be c2 60 29 be
       -0.0036202355 -0.049963538 -0.21705626 -0.16540816
0003e0 d8 77 43 3e b1 35 31 3d 3e 66 9b be e8 09 61 be
       0.19088686 0.043264095 -0.30351442 -0.21976435
0003f0 00 30 83 3e 7b 14 39 be ca 54 99 3e c1 c3 94 be
       0.2562256 -0.18074219 0.299475 -0.29055598

lstm.bias_ih_l1 f4 [200]
000000 c2 aa 44 bd 94 58 62 be dc 0f 74 be f8 dc 4c 3e
       -0.04801441 -0.22104102 -0.23834175 0.20006168
000010 95 1d 21 be 96 16 e7 be ef 5f 00 bf 0b 1c c2 be
       -0.15733941 -0.4513442 -0.50146383 -0.3791202
000020 dc 5b 90 be 91 bb c1 be ad 41 f9 bd f6 5d c8 be
       -0.28195083 -0.37838414 -0.1217073 -0.39134187
000030 d2 31 94 be dd 1d be be e4 0c 71 bc 15 c7 cc bc
       -0.2894426 -0.3713216 -0.014712546 -0.024997273
000040 69 b3 dd 3b 74 21 2f bd e3 01 81 be d4 70 30 be
       0.006765772 -0.042756513 -0.25196752 -0.1723054
000050 06 86 c0 be e9 92 79 bf 52 48 72 be 2d 10 27 be
       -0.37602252 -0.9748979 -0.236604 -0.16314764
000060 b3 b3 a8 bd 77 e4 56 3d db 90 50 bf 32 dd a8 bd
       -0.082374 0.052463975 -0.8147103 -0.08245315
000070 a5 57 e3 3b 20 74 23 be 04 e4 27 bd 92 2d 79 bd
       0.0069379383 -0.15962267 -0.040988937 -0.060834475
000080 28 27 49 be 71 f6 dc bd b3 72 76 be 17 da 83 be
       -0.19643843 -0.107891925 -0.24067192 -0.25752327
000090 90 b3 82 be d3 df 15 be 5c ca 90 be c3 7b 3a be
       -0.2552762 -0.14636163 -0.28279388 -0.18211274
0000a0 39 e1 8c be 28 5b 8d be 06 0a 03 3e e2 87 b0 3d
       -0.2751558 -0.2760861 0.12796792 0.086196676
0000b0 33 4f f7 bd cc eb c7 bd 35 1a 3f bf 97 9a 17 be
       -0.12075653 -0.097617716 -0.74649364 -0.14805065
0000c0 1e 5d f1 bd 13 de fc bd e6 3c 0a be 5f 7a 9e bd
       -0.11785339 -0.12347045 -0.13499793 -0.07738184
0000d0 52 38 d4 be cd fe 06 3d 5a d2 d6 be 76 4f 29 bf
       -0.4144922 0.03295784 -0.4195736 -0.6613687
0000e0 06 38 51 bf a7 de af be 5d 55 ea be 85 c2 3d bf
       -0.8172611 -0.34349558 -0.45768252 -0.7412494
0000f0 74 da 31 be 54 f3 1e bf 2f cf 27 be af 8d 88 bf
       -0.1736849 -0.6209004 -0.16387628 -1.0668238
000100 5c 5f dd be 47 f7 27 be 13 1e 98 bd c7 62 85 be
       -0.43236816 -0.16402923 -0.07427611 -0.26051924
000110 db 23 dc be 0a 3f c7 be 69 7e 1f be 5f b0 83 bf
       -0.42996106 -0.38915282 -0.15575565 -1.0288199
000120 33 9b 6b be 4f 02 50 be 39 01 cf bd 9c 7d 7c be
       -0.23008423 -0.2031338 -0.10107655 -0.24657291
000130 72 8d 97 bf 3d 05 01 be 84 8c d1 be f5 9c f4 be
       -1.1840041 -0.12599654 -0.40927517 -0.47776
000140 89 49 98 bd cd 20 a9 be 3e 99 02 be 4c db 3f be
       -0.07435901 -0.33032838 -0.1275377 -0.18735999
000150 64 19 8c be 23 fb f2 be 93 36 37 bf 9f d5 52 bd
       -0.27363122 -0.47457227 -0.7156765 -0.051473256
000160 86 3c e2 be bf da 44 3c 72 3e 8f be 89 6a b8 be
       -0.441868 0.012015044 -0.2797733 -0.3601878
000170 c6 61 e8 bd 81 dd 38 be c3 97 83 be 93 fc 9c be
       -0.11346774 -0.18053247 -0.25701723 -0.3066145
000180 7e 18 5d bf 82 07 c0 bd a1 73 be be 73 62 c1 be
       -0.863655 -0.09376432 -0.37197593 -0.37770423
000190 38 b8 b3 bd b9 47 e3 bd 31 82 3d 3e 0b 89 2f bb
       -0.08775371 -0.110976644 0.18506695 -0.0026784565
0001a0 5d 1b 0a 3e c7 0b 5c be b7 30 dc 3d 88 56 e4 bd
       0.13487001 -0.21488868 0.10751479 -0.11149317
0001b0 c0 ed 11 3e 51 95 27 3e 90 13 71 3e 0d 99 36 3e
       0.1425085 0.16365553 0.23542619 0.17831822
0001c0 cb 81 d2 3d 5f ba 41 bd 10 4c a3 bd 3c 12 c9 bb
       0.10278662 -0.047296878 -0.07973492 -0.006136207
0001d0 66 7c 9e bd 76 36 28 be df de 5f be 16 eb de bd
       -0.07738571 -0.16427025 -0.21862362 -0.10884683
0001e0 41 83 4b be b3 93 54 3d 15 2a dc bd cd 48 a5 bd
       -0.19874288 0.05189867 -0.10750214 -0.08070526
0001f0 cd 64 5b 3e 02 64 1c be 7f b4 ff 3d 10 9e 60 bd
       0.21425171 -0.15272525 0.12485599 -0.05483824
000200 12 ba 2d bd 73 80 04 3e 17 90 bb 3d 83 e5 23 3d
       -0.04241378 0.12939624 0.09158342 0.0400138
000210 9a 35 fa bd 93 e4 d8 bd b1 1e 60 3c d7 57 ad bd
       -0.12217255 -0.10590472 0.013679192 -0.0846402
000220 21 90 58 be 21 d9 e5 3d 38 b3 2c 3e be 11 b0 3b
       -0.21148731 0.11223055 0.16865242 0.005373209
000230 63 dd 0f bd 82 f0 8f bc 0d 91 39 3e d5 74 4b 3e
       -0.03512324 -0.017570738 0.18121739 0.19868787
000240 bf 41 76 bc f4 45 10 3c 9a 31 f9 bd 83 4d d7 bc
       -0.0150303235 0.008805741 -0.12167664 -0.026282078
000250 c2 75 e7 3d 27 74 71 3e 93 28 61 3d 79 c8 04 be
       0.113017574 0.23579465 0.054970335 -0.12967099
000260 e4 7d 48 be 18 62 bf 3c 6d 20 b3 be 20 2f 85 be
       -0.19579273 0.023362204 -0.34985676 -0.26012516
000270 b1 8e 30 bf 7f 14 ce be e1 f2 90 bd e9 08 68 be
       -0.6896773 -0.40250012 -0.070775755 -0.22659649
000280 e6 50 00 3b 84 bc 8d be d3 80 3b bd 80 b8 15 bf
       0.001957947 -0.27682889 -0.045777153 -0.5848465
000290 47 a8 92 be ea 8d e8 bc 3a 25 fd bd 70 30 ef 3c
       -0.2864401 -0.028387982 -0.12360616 0.029197901
0002a0 0a 6e 96 be 1d cd 39 be 50 28 f6 bd 17 4e 80 bf
       -0.29380828 -0.18144651 -0.12019408 -1.0023831
0002b0 6e 31 6d 3b ff 86 0d 3d 19 f0 d1 3c f2 77 0f 3d
       0.0036192792 0.03455257 0.025627183 0.0350265
0002c0 87 be 16 bf 2f cd bc bd 90 04 37 3a 6a 3c 4a be
       -0.5888447 -0.09218823 0.0006981576 -0.19749609
0002d0 9b a5 47 bc ce ee 45 be 5d ab d4 bb 4e 70 56 be
       -0.0121854795 -0.19329378 -0.0064901547 -0.20941278
0002e0 94 25 21 be 9b b9 86 be 84 a7 70 be 78 22 84 be
       -0.15736991 -0.2631348 -0.23501402 -0.25807548
0002f0 da ba 1b be 75 6b 1f bd fe 03 a3 be 7a 77 54 be
       -0.15207997 -0.03892084 -0.31838983 -0.20748702
000300 9f fc 45 3d 16 5d 72 be 47 df 96 be e7 bd 78 bd
       0.04833662 -0.23668322 -0.29467222 -0.06072798
000310 a8 a6 ff be 90 8d e4 3c ad ce 04 be 06 94 ae be
       -0.49931836 0.027899534 -0.12969466 -0.34097308

lstm.bias_hh_l1 f4 [200]
000000 9d a1 8e 3d 0d 51 43 bd cc d1 06 be 80 05 62 3e
       0.06964419 -0.047684718 -0.13165969 0.2207241
000010 28 27 b7 be 2c 81 06 bf 43 94 0c bf 89 a3 a2 be
       -0.3577206 -0.5254085 -0.5491373 -0.31765392
000020 96 b1 a3 be b3 53 d0 be 2e 44 23 be 38 90 83 be
       -0.31971425 -0.40688857 -0.15943977 -0.25695968
000030 75 51 70 be b7 27 f6 be 20 b7 9b bd 45 d6 53 be
       -0.23468573 -0.48077175 -0.07603288 -0.20687206
000040 8f 91 9b 3d de 8c f3 3c dd 4e 6c be a2 f1 1e be
       0.075961225 0.029730257 -0.23076959 -0.15521863
000050 14 a5 35 be fd bc 80 bf 91 28 8f bd 08 99 12 3c
       -0.17738754 -1.0057675 -0.06990159 0.008947618
000060 fb 98 e5 3d f0 a5 0c 3d 67 7c 1d bf 42 02 81 be
       0.11210819 0.034337938 -0.6151795 -0.25197035
000070 e8 84 6d bc 68 8c 64 be 7e cc 8d bd f5 8e 8d be
       -0.014497019 -0.22319186 -0.069237694 -0.2764813
000080 70 67 e0 bd cb 4d 65 be 95 c1 5a be 5c a4 d2 bd
       -0.10957229 -0.22392957 -0.21362908 -0.10285255
000090 48 7c a6 be ed 1a 83 be b1 52 55 be c1 fe 2f be
       -0.32516694 -0.2560648 -0.20832326 -0.17187025
0000a0 22 73 51 be bb 78 2c be 3e 3d ba bd 6e 21 b2 3c
       -0.20454076 -0.1684293 -0.09093712 0.021744456
0000b0 82 ce 82 be 26 91 b6 bc 2d 6e 12 bf 63 6b 57 bd
       -0.25548178 -0.022286009 -0.57199365 -0.052592646
0000c0 e8 a0 6d be 9e 87 88 be 58 01 db bd 3e c5 02 be
       -0.23205912 -0.26665968 -0.10693616 -0.12770554
0000d0 84 43 f4 be 9d d6 27 3e 0e 46 be be 1e c1 44 bf
       -0.4770776 0.16390462 -0.37162822 -0.76857173
0000e0 64 8e 36 bf a5 1b d1 be 9f c0 ec be 43 7f 28 bf
       -0.7131102 -0.40841404 -0.46240708 -0.65819186
0000f0 6f 8b a4 be c6 d7 4f bf 90 34 9f be e7 70 7e bf
       -0.3213763 -0.8118862 -0.3109479 -0.99391025
000100 bc ac ec be 19 34 24 be 6d 37 cf bd e1 e4 9c be
       -0.46225536 -0.16035499 -0.101179935 -0.3064337
000110 0f fc ec be 91 58 80 be 8f 50 47 be 79 df 82 bf
       -0.46286055 -0.2506757 -0.19464324 -1.0224448
000120 db 5a 63 be c0 74 d4 bd a0 54 6b be 8f 88 54 be
       -0.22202627 -0.10373831 -0.229815 -0.20755218
000130 de 63 9d bf eb 9b 03 be 98 92 a2 be bd 45 cb be
       -1.2296102 -0.12852447 -0.31752467 -0.39701644
000140 a8 a9 28 be 36 43 80 be dd 71 66 be 17 57 87 be
       -0.16470969 -0.25051278 -0.22504373 -0.26433632
000150 04 d3 cd be ff 42 dd be c9 e6 28 bf 73 55 65 bd
       -0.40200055 -0.43215176 -0.6597715 -0.055989694
000160 50 75 97 be 97 20 3b be ff e7 5a be 6e d3 64 be
       -0.2958169 -0.18274151 -0.21377562 -0.22346279
000170 cf 34 26 be 6d 7a 27 be 6e 15 7f be 05 ad b1 be
       -0.16231082 -0.16355295 -0.24910519 -0.34702316
000180 46 ce 6f bf d9 1b 1f be b9 c1 b2 be 00 f0 11 bf
       -0.93674123 -0.15537967 -0.34913424 -0.57006836
000190 45 f4 70 3d 93 73 d6 3c 81 9d b2 3d 8f 26 12 3d
       0.058826704 0.026178157 0.08721448 0.035681304
0001a0 d1 93 4d 3e 89 7d f9 bd ed 15 2a 3e 20 23 57 be
       0.20075919 -0.12182147 0.16609927 -0.21009493
0001b0 04 15 5f 3d 53 b9 2a 3e 64 c3 3a 3e c1 08 90 3d
       0.0544634 0.16672258 0.18238598 0.0703292
0001c0 95 c7 d3 bc b5 56 5d be ed 74 14 be f6 65 59 3d
       -0.025852004 -0.21615107 -0.14497729 0.053075753
0001d0 6a 6b 96 3d ec d2 c8 bd 19 f6 0a be 6f 5c a9 be
       0.07344706 -0.09805855 -0.13570441 -0.33078334
0001e0 27 25 16 be e4 8f 15 3d fe 70 04 be 0f af 6c bd
       -0.1466261 0.036514178 -0.12933728 -0.057784136
0001f0 59 1e 0a 3e a0 81 66 be 88 e3 1d 3d 4a b4 0e bd
       0.13488139 -0.22510386 0.03854707 -0.034839906
000200 ed 1a 7a be 34 d6 87 3e 8f c5 30 be 9f c0 1b be
       -0.24424334 0.26530612 -0.17262863 -0.15210198
000210 42 a2 cd 3b ed bc 46 be 07 bc c5 3d 6f c2 54 be
       0.006275446 -0.19408007 0.09655004 -0.20777296
000220 4a f4 fa bc 4d 83 cf bc 73 d8 8a 3e 9e 15 c1 3c
       -0.030634064 -0.025331164 0.27118263 0.023569878
000230 d2 e4 5a bc ac 0a 30 3e 61 05 63 3e 8b 34 80 3e
       -0.013360219 0.17191571 0.2217002 0.25040087
000240 a2 95 0d be 38 ec 88 be 5c 7f 8f bd 18 89 68 bd
       -0.13826612 -0.2674272 -0.07006714 -0.056771368
000250 11 2c 94 3e 77 ed 08 3e cd 8f 90 bd 5d 3e 17 be
       0.2893987 0.13371836 -0.07058678 -0.14769883
000260 be e9 64 be 50 2c a0 3c f3 4d 34 be ce 92 c8 be
       -0.2235479 0.01955238 -0.1760786 -0.39174503
000270 73 ab 23 bf 5a 8d 01 bf b4 74 22 bd 2b 17 5f be
       -0.63933486 -0.5060631 -0.039662078 -0.21786182
000280 48 f4 bf bb 47 98 64 be df 3f 69 bd da 9b 18 bf
       -0.005857978 -0.22323714 -0.056945678 -0.5961281
000290 51 f9 96 be 6c d6 8c bc 96 d5 12 be 3c bd 46 be
       -0.29487088 -0.017192088 -0.14339289 -0.19408125
0002a0 fc 5b 5e be 03 0c 53 be 71 d9 ba be fd 79 64 bf
       -0.21714777 -0.20610051 -0.3649402 -0.8924864
0002b0 8b 95 76 be f3 9c 21 bd 14 3a 22 bd 12 ab 74 bd
       -0.24080484 -0.03945632 -0.03960617 -0.059733458
0002c0 33 84 17 bf bb 0c 0e be 55 4c 25 be 62 3c 86 bd
       -0.59186095 -0.13872044 -0.161424 -0.06554486
0002d0 53 de 64 bd cd e9 8a be 51 63 88 be e0 d5 1a be
       -0.055876087 -0.271315 -0.26638272 -0.1512065
0002e0 24 fd 28 be 87 82 87 be a0 92 bb be 5e c3 99 bd
       -0.16502815 -0.26466772 -0.36635303 -0.075079665
0002f0 fd 59 56 bd 59 f3 60 be 6b 19 12 be 19 60 32 bd
       -0.052331913 -0.2196783 -0.14267509 -0.043548677
000300 3a e6 a8 3d 42 0d 6e be 95 96 d8 bd 9d fe 1e be
       0.08247037 -0.23247245 -0.10575596 -0.15526815
000310 9a a2 06 bf e7 8b 93 bd 35 9f 03 be 9a 19 36 be
       -0.5259186 -0.07204419 -0.12853701 -0.17783204
