saved_models/BasicLSTM_NVDA.pt (torch, 45198 bytes, 5 tensors)

lstm.weight_ih_l0 f4 [200, 1]
00000000: 9bb8 ccbc 870d 073e f938 ad3e 4622 8e3d
00000010: 942b d63e fa61 083f d7aa 9d3e 743f 803e
00000020: 3c26 083f 2f35 9e3e c944 673e 4b63 843e
00000030: b821 4e3e c7b4 7b3e 3429 a03e 16f8 b63e
00000040: 333a 3e3e 2521 0b3e 27a9 eb3b 5441 72be
00000050: 4076 463e c0d8 823e f9ec ed3d e4d8 f53d
00000060: 3987 933e 1126 933e f4c3 543d d9ca 6d3e
00000070: ebc9 ad3b b732 343d 158d c5bc 574f 0e3e
00000080: 7026 b13e c4a1 613e 7a92 f43d 4a37 d13e
00000090: 0749 9e3e fc56 5c3d 4e6a 073e 8018 4c3e
000000a0: fc52 3a3e 39b6 a13e a157 ca3d b26e 913d
000000b0: 126c a03e 35c3 793e f2d4 98bd 9ebb 4a3e
000000c0: 5ac0 9c3e d78b 8d3e 33a7 983e 7b40 833e
000000d0: 9bf0 8d3e b8fe a83e 276f 21be 6bca 38be
000000e0: 5b07 8f3e d99a 2abe e6ae 813e 4188 6abd
000000f0: 2903 9f3e 2704 b63d 6657 b1be 51f6 e7bd
00000100: 364d 813e ad71 d23d 37ad 983e d63f 8e3e
00000110: 5345 40be f6d9 e03e 9d6e 963e 6488 a73e
00000120: 24b4 eb3d e8d1 9abe e6d9 793e 8e5c 203e
00000130: f63b 2c3e f03b 183e 6f38 17bd f5e1 c73d
00000140: 1bd8 0c3e 1083 8fbe 2882 a5be db72 393e
00000150: 6c62 243e 9a26 e13d c339 623e cbe7 42bf
00000160: 8937 8e3d fa0e 993e d627 4a3e 8ef8 2b3e
00000170: 5f6d c33d c0df bd3d 9461 553e 4584 543e
00000180: d918 453e c65f e0bd 6c5d 143e b438 9e3e
00000190: edc4 abbe c27a ff3d db9d 8b3e ecd4 9dbe
000001a0: 56da 2dbf 8f00 3f3f 7050 2fbe c27e 373e
000001b0: bed9 39bf 7df4 653e 2578 3ebe 2ea3 203e
000001c0: d305 4cbe ff28 96be 16d9 71be ae31 383e
000001d0: e1f0 913e e55b 993e 1726 2e3e 9b8f c3be
000001e0: ac22 2d3e cc0b 34be 96fa 46be 6e79 753e
000001f0: 26a3 9dbe 0ae4 593e 214b b2bd 6631 3d3e
00000200: ffb6 c6be cbf0 33be b93f b5be b56e d4bd
00000210: 990e 06be 8682 2bbe 3c95 31be ee25 4e3e
00000220: afd4 583e dfb3 70be 5bd4 d6bd 0d31 80be
00000230: edec 8b3e fbbf 713e 258a 2abe 5900 8cbd
00000240: 3ca2 723e 32cb 223e 7f81 a0be b238 143e
00000250: cba8 60be 0514 91be 2726 443e 00dc 363e
00000260: 8581 9c3e 9c39 123e e9d1 c43e 2f18 103f
00000270: 2926 bf3e 8d5d 803e 9f05 f13e c27a aa3e
00000280: b645 813e 03e4 8e3e 887f 6a3e 819d 6c3e
00000290: d7c5 b03e 70d4 e33e de2b 8c3e f480 4b3e
000002a0: 84d2 a6bc 0bd3 b23d 8b5e 783e 6bcc aa3e
000002b0: 4334 083e 58ba 2c3e 8bf4 783e 3351 9e3e
000002c0: 4a0d e03d d41f b53e a90d 89b8 2927 b13d
000002d0: 4445 d43d 36be f6bc 70a6 b13e c793 783e
000002e0: 44e2 2e3e a7a5 d33e 3ddd ad3e 4d4f b03d
000002f0: e150 243e 2e29 663e 0b5d 183e f3c4 9b3e
00000300: 0c60 0f3d 477b a53d 7c1d 403e ca73 973e
00000310: e485 8b3d 651d 863e 74a8 9e3e 09d8 763e
-0.02499037 0.13188754 0.3383253 0.06940131 0.41830122 0.532745 0.30794403 0.2504841
0.5318334 0.3089995 0.22584833 0.25857005 0.2013005 0.2458068 0.31281435 0.3573615
0.18576889 0.13586862 0.0071917954 -0.23657733 0.19381046 0.25555992 0.116174646 0.12004259
0.28814104 0.2873998 0.051944688 0.23221911 0.0053036115 0.043993678 -0.024115125 0.13897453
0.34599638 0.22034365 0.11942001 0.40862495 0.3091509 0.053793892 0.13224146 0.19931221
0.18195719 0.31584337 0.09879995 0.071011916 0.3133245 0.24390872 -0.07462491 0.19798133
0.30615503 0.27645752 0.29815063 0.25635132 0.2772263 0.33006835 -0.15765058 -0.18045966
0.279353 -0.16660632 0.2532875 -0.057258848 0.31057099 0.08887511 -0.34636992 -0.11326278
0.2525422 0.10275588 0.29819652 0.27783078 -0.18776445 0.4391629 0.29381266 0.32721245
0.115089685 -0.3023827 0.24399528 0.15660307 0.16819748 0.14866614 -0.036919054 0.09759895
0.13754313 -0.2802968 -0.32325864 0.1811022 0.1605317 0.10993691 0.22092347 -0.7613494
0.06944186 0.2989424 0.19741759 0.16794035 0.09542345 0.092711926 0.20838004 0.20753582
0.1924776 -0.10955767 0.14488763 0.30902636 -0.3354868 0.12474586 0.27268872 -0.3082651
-0.6791128 0.7461023 -0.17120528 0.17919448 -0.72597873 0.22456546 -0.18600519 0.15687248
-0.19924097 -0.29328153 -0.23617968 0.17987701 0.2850409 0.29952922 0.17006718 -0.381955
0.16907758 -0.17582625 -0.19431528 0.23972103 -0.30788535 0.21278396 -0.08705736 0.18475875
-0.3881149 -0.17572324 -0.3540018 -0.10372678 -0.13091506 -0.1674901 -0.17342085 0.20131657
0.21174882 -0.23506115 -0.10489722 -0.25037423 0.27329198 0.23608391 -0.1665426 -0.06836004
0.236947 0.15897825 -0.31348798 0.14474753 -0.2193939 -0.28335586 0.19155179 0.17857361
0.30567566 0.14279789 0.384414 0.562869 0.373338 0.25071374 0.470746 0.33296782
0.25248498 0.27908334 0.22900212 0.23106958 0.3452594 0.44498014 0.27377218 0.1987341
-0.020364054 0.087316595 0.24254815 0.33359084 0.13301186 0.1686796 0.24312036 0.30921325
0.10940035 0.35375845 -6.5352135e-05 0.08650047 0.10364774 -0.030119997 0.34697294 0.24275123
0.17078501 0.4133732 0.33957854 0.086088754 0.16046478 0.22476646 0.14879243 0.30423698
0.035003707 0.08080154 0.18761247 0.29580528 0.06812647 0.261943 0.30987895 0.24105848

lstm.weight_hh_l0 f4 [200, 50]
00000000: e014 57bf 9cbf d13e 744e 2b3e f42d e8be
00000010: 56f7 6abe de19 143e 50d6 04bf 76d1 3fbe
00000020: e15f 17be 6000 443d 3052 22bf 2bca 103f
00000030: 0c5b ae3e 3254 93be 2281 aebe d181 853f
00000040: a2b1 003f 3040 953e 9a47 293d 0a87 9fbf
00000050: 0ab0 de3e 93bf 01bf 2a3c c1be f173 afbe
00000060: af69 c5be 5942 243e bf70 99be 7f28 0b3f
00000070: 2676 8dbf fa65 1dbe c0cb 97bf 1919 5d3f
00000080: b64f 11ba 922e 24bf f383 003e 8856 7e3e
00000090: 39be 3f3f c99c 36bf aade 91bc 8bd7 2fbf
000000a0: 68a3 563e 800c e23e f1e7 c6bd da2d 54be
000000b0: eb97 453e a7d3 173f 08f1 62be ab81 643e
000000c0: f1c4 20bf 93ec 10be e9f8 113e d4cf ddbd
000000d0: bd50 3cbd f9ae 3f3e 646d c33e 772a 83be
000000e0: 2f6e 80bd 4eaa b03d 79e2 903e f6c5 71be
000000f0: 6423 42bd 3a11 b3bd 6265 3c3e cfe8 353e
00000100: aca6 313e e5bc c53d 1f23 9fbe 6d69 39be
00000110: 0ff0 adbe d720 fcbd 09a4 fbbd 6980 bb3d
00000120: 3156 763e 603e 23be f31c 933e d266 a9bd
00000130: 41a1 043d 0543 aebd 7be6 fbbd 99c3 603d
00000140: 1a9f 673e b8da 3a3e cc2e c43e 547d c23d
00000150: 2c7a 673d a957 1bbc 2fda 323a 9f9a f43c
00000160: 13a8 4abd f01e 403e e4ce 61be a86a e8bd
00000170: 9b43 573e 833f 7d3e 1e47 5fbe a9e3 9bbd
00000180: 2dd3 7d3e affc 11bd f666 f4bd 871a 513e
00000190: 536c 8ebe bb03 d33d 035e 9dbd 9c39 d5bb
000001a0: fabe dbbc ae26 4cbe 41d7 56be 1a79 f03d
000001b0: 5cab 6f3e b218 d33c 1138 abbe 1415 273d
000001c0: fcb2 6fbe ac62 ee3d a3a4 133e 3aba ef3d
000001d0: 7e67 2b3e 70db 173e 3de5 54be 269d bcbe
000001e0: da71 babd a32f eebd 9b99 4abe ad9e 823e
000001f0: be28 05be 935b 853d 37ab 0abe c2c5 10be
00000200: d709 1cbf f1cb 6ebe 3aa8 80bd 0354 43be
00000210: a3a1 5f3d 5c54 f5bc 7021 b3bd c396 693e
00000220: 5bf3 6a3e 5747 ccbd a250 0bbe fb9b 15be
00000230: cd33 1fbe 01fb 093d ad13 e6bd 985c c63c
00000240: 54a6 febc 9ab5 453d 9855 5d3d 73ff b2bd
00000250: 0300 71be 2ec3 883d 322f 8fbf 9f9a c33d
00000260: ec3e 80bd 7f71 59be e2e8 cabc 26f8 92be
00000270: 95e3 393d a601 1ebf 5e0c 113e 0ae4 b6bd
00000280: 0a78 363d 20f7 703e df73 8b3f 845d febd
00000290: 4ad6 eb3a 1564 143f acfd 1e3e 67e1 163e
000002a0: 8ee5 ffbe 0c76 b7bf 7dc3 5e3d 1d38 293e
000002b0: aa1d cd3c a87a 84bf 923f 8bbe a93a a33d
000002c0: e302 853e ac28 613e 83b2 f1bf 5cd6 dc3e
000002d0: f2e5 d8bf 1632 793f 9a4c 763e c1c8 0abe
000002e0: a4c8 8c3f 6d7d 0dbe 91de cc3e 5477 33be
000002f0: d801 7d3e 29a1 f8be 6708 49bd 1661 593d
00000300: 8fa3 7a3e b2cc be3e 9bf5 08be 5c57 803e
00000310: 3b4d 0abf d417 ed3d 3ac1 ddbe c602 7bbd
00000320: f168 20bf e545 6b3e 05bd 4b3d 10ac a2be
00000330: 7b2e 40be cca4 553e 4a5b 5dbe 10e4 eabb
00000340: df66 84be e4f0 4e3e e68a cbbe b030 ad3e
00000350: febf 9fbb 541b 5abe 1147 c6bd 0179 c93e
00000360: 5c57 423f 9e0b 163f beca 21bd 6bcd 15bf
00000370: ebb8 a63e e2c5 50be 402c a9be 51ee 373e
00000380: 0c41 23bf 900d 093f 1aca 82bd ce18 a23e
00000390: 3786 a5be 3ca0 a3bc 0d77 32bf 43aa 033e
000003a0: a46c b6be b02e 99be ada9 0e3e 7e41 bc3e
000003b0: 3cff b03e 5671 d3b9 988c 523d 9c70 ecbe
000003c0: 73f0 5e3d 51b4 833e dddc 563d d800 003e
000003d0: 5b74 2e3d 63b5 a23e 138f ddbe 87e5 c73d
000003e0: 2494 a4be e3b2 0fbd 4bd5 e2be 6055 823d
000003f0: 285e 02bb a307 2ebe 4891 323d b257 7ebe
-0.8401623 0.409665 0.16729146 -0.4534756 -0.22945914 0.14462993 -0.51889515 -0.18732247
-0.14782669 0.04785192 -0.6340666 0.56558484 0.34053838 -0.28775173 -0.34082896 1.0430242
0.50271046 0.29150534 0.04132805 -1.2463086 0.43493682 -0.50682944 -0.37741214 -0.34268144
-0.38557193 0.16040935 -0.2996883 0.5435867 -1.1051681 -0.15370932 -1.1859055 0.8636642
-0.0005543189 -0.6413356 0.12550335 0.24837697 0.7489963 -0.71332985 -0.01780637 -0.6868827
0.20960772 0.44150162 -0.09712208 -0.20720616 0.19296233 0.5930733 -0.22162259 0.2231509
-0.6280051 -0.14152746 0.14255108 -0.10830656 -0.045975436 0.1871909 0.38169396 -0.25618336
-0.06271016 0.08626233 0.28297785 -0.23610672 -0.047397032 -0.0874352 0.1839805 0.1776459
0.17348737 0.096551694 -0.31081483 -0.18106623 -0.33972213 -0.12310951 -0.122871466 0.09155352
0.24056317 -0.15941763 0.28733024 -0.082715645 0.032380346 -0.08508877 -0.1229982 0.054874036
0.22619286 0.18247497 0.38316953 0.09496561 0.056512997 -0.009481349 0.0006822673 0.029858885
-0.049476694 0.18761802 -0.22051579 -0.11348468 0.21021883 0.24731259 -0.21804473 -0.07611782
0.24787588 -0.03564137 -0.11933701 0.20420276 -0.2781702 0.10303446 -0.07683947 -0.0065071117
-0.026824463 -0.1993663 -0.2098055 0.11741848 0.23405212 0.025768612 -0.33441213 0.040791586
-0.23408121 0.11639914 0.14418273 0.11705442 0.16738698 0.14829803 -0.20790572 -0.36838645
-0.09103747 -0.1163018 -0.19785158 0.25511685 -0.13003823 0.06511607 -0.13541876 -0.14137939
-0.60952514 -0.23319985 -0.06282087 -0.19075017 0.05459751 -0.029947452 -0.08746612 0.22811417
0.22944395 -0.099745445 -0.13604978 -0.14610283 -0.15547104 0.03368664 -0.112342216 0.024214074
-0.03108517 0.048268892 0.054036707 -0.08740129 -0.2353516 0.066778526 -1.1186278 0.09550976
-0.062620014 -0.21234702 -0.02476925 -0.28704947 0.045383055 -0.61721265 0.14164874 -0.08930214
0.044548072 0.2353177 1.0894736 -0.124201804 0.001799294 0.57965213 0.15526456 0.14734422
-0.49979824 -1.43329 0.05438565 0.16525312 0.025038559 -1.0349932 -0.27196938 0.07970173
0.25978765 0.21988171 -1.8882602 0.43132293 -1.6945174 0.9734205 0.24052659 -0.13553144
1.0998731 -0.13817377 0.40013555 -0.17525989 0.24707735 -0.48560455 -0.04908028 0.053071104
0.24476455 0.37265545 -0.13374941 0.2506665 -0.54024094 0.115768105 -0.43311483 -0.06128194
-0.6266013 0.22975881 0.04974081 -0.31771898 -0.18767731 0.20863646 -0.21616855 -0.0071683004
-0.25859734 0.2020908 -0.3975441 0.33826208 -0.004875182 -0.21299487 -0.096815236 0.3935013
0.7591455 0.58611476 -0.03949999 -0.5851657 0.32562956 -0.20387986 -0.33041573 0.17962004
-0.6377113 0.5353632 -0.06386204 0.3165955 -0.3232896 -0.019973867 -0.6971291 0.12857918
-0.3562976 -0.29918432 0.13931914 0.36768717 0.34569728 -0.00040329498 0.051403612 -0.46179664
0.05442853 0.25723508 0.052456725 0.12500322 0.042591434 0.31779012 -0.4327322 0.09760576
-0.32144272 -0.03508271 -0.44303355 0.0636394 -0.0019892547 -0.169951 0.043595582 -0.2483814

lstm.bias_ih_l0 f4 [200]
00000000: 0642 08bf b017 8abe 6148 b93d 4907 32be
00000010: 780b 023f 55f2 b53e 938f e2be 98eb e3be
00000020: 9fec b73e 908b 43bd c980 05bf 05e3 d5be
00000030: 6171 9dbe eba2 9ebd 31a1 53be 06cf 1abf
00000040: 59ed d2be f888 57be 6fbe b9bd 85d4 00bf
00000050: ec27 5bbe a05f a2be 94d1 30be df23 43be
00000060: 6e5a 95bd 4c33 c0be b64b a4be 9ea9 86be
00000070: ccb6 1ebf 9d78 50be 6b09 64be 55c6 f33d
00000080: 552c 313e a980 b8be c491 aebe a167 1fbf
00000090: 4c72 1bbf 9c0f 2cbe 63dc 29bf 7689 d9be
000000a0: ab35 46be 1798 613b 65ad 6cbe ca5c e6be
000000b0: 94cd ef3c e58d dfbe 4431 8dbe 6834 73be
000000c0: cc83 1dbf db8c 46be 2276 afbd 5ecc 5b3d
000000d0: 8026 35bb f21d 85bd 1fda 92be 3153 25be
000000e0: 31bc 983d 9321 e5be 8457 69bd ec80 a3be
000000f0: 73e4 573c 7b03 8cbe 44ea dfbe 58f4 afbe
00000100: eba2 083e 46b5 c5bd 7429 16be eab0 9d3d
00000110: cb7c b6bd bd06 6abe 3a58 f3bd 8eb1 6e3d
00000120: 40c4 07be f790 b4be d26c 0bbe bf0c 36be
00000130: eee5 be3c 4e10 d8bd 28c3 51be 77be 6e3c
00000140: 5861 f2bd 5e44 d1be 7ec5 1fbe 478a c9bd
00000150: a2e2 61be a388 87be a174 b8bd 7f5b b63d
00000160: b125 88be 53b9 54be d951 7ebd 1480 92bc
00000170: 4805 81bd bbe3 29be f0d8 07be eda2 eebe
00000180: b73f b4bd a9b9 f2be 1913 5ebe cd1d 8ebc
00000190: 9e18 823e e6a2 5bbe bffe c43c 491e c73d
000001a0: 93c7 06bd 8f63 cabe d22f 473e e675 b0be
000001b0: e4e8 a2be 17c2 143d 1a5f 913e c41b 76bd
000001c0: fadf 493d 9c47 e83c 2881 4bbd cfc0 79be
000001d0: 2a87 84be ad4a 47be 0d60 763e c77f 1f3e
000001e0: c21b b23b e145 453e 0d2f 103e 4122 99bd
000001f0: 75a3 1c3e 6663 07bf a32b 1a3e 2b05 33be
00000200: 1bbd 3a3e e034 143e 7105 2e3e 3a40 42be
00000210: e84d 2abe ffd8 8f3e ea1b a5bb 5200 d5be
00000220: a026 bcbe 6e65 2cb8 99a0 983e 1699 eb3d
00000230: 6aab 42bd 2081 c73c 827d a7bd 1ca9 f2bc
00000240: 8a6a 5cbd 2527 57be 27b3 4d3d a81a 7bbe
00000250: 334e e13e 12db 2dbe 0054 c3be b069 44be
00000260: d2b5 583e 6690 f7bd 38c8 fc3e 075f 2c3f
00000270: 01b6 a7be 51e2 08bd 12dc 143e 13d2 403e
00000280: 6817 b3be 7662 e0be 26b5 87be 771b 0fbe
00000290: 0570 9ebd c261 14bf d9d5 a5be 5f0f 833d
000002a0: 35e0 d9be 8cb6 fbbe 1480 e5bd 86d5 ccbd
000002b0: e238 3dbe a024 82be 4d74 cebd 8556 18be
000002c0: 89c4 a2be a560 8f3d 6c8c 04bf a4d8 03bf
000002d0: b941 67bd ff78 833e a8ef 333e fae7 a1be
000002e0: 189b e43d 2d3e c6be 342f 06bf 4870 ffbd
000002f0: 818c e2be 1c95 cdbd 7b16 94bc dc39 bbbd
00000300: c460 bfbd 95af 8cbe c565 1dbe 3c76 e1be
00000310: c8b5 99be 01e2 a0be 4911 a5be 9731 85bd
-0.53225744 -0.26971197 0.09047008 -0.17385592 0.5079875 0.35536447 -0.44250163 -0.4451568
0.35922715 -0.04774052 -0.52149636 -0.41774765 -0.30750564 -0.07745918 -0.20666958 -0.6047214
-0.41196707 -0.21048343 -0.090695255 -0.5032428 -0.21401948 -0.3171358 -0.17267448 -0.19056652
-0.07292639 -0.37539136 -0.32089013 -0.26301283 -0.61997676 -0.2035851 -0.22269218 0.11903063
0.17302068 -0.3603566 -0.34095585 -0.622675 -0.6072128 -0.1680283 -0.6635191 -0.42487687
-0.1935641 0.0034422928 -0.2311302 -0.44992667 0.029272832 -0.43662944 -0.2757665 -0.2375046
-0.6152923 -0.1938967 -0.08567454 0.053661697 -0.0027641356 -0.06499852 -0.28682038 -0.16145016
0.0745777 -0.44752178 -0.056968227 -0.31934297 0.013177025 -0.27346405 -0.43733418 -0.34366107
0.13343398 -0.09653716 -0.1466425 0.07699759 -0.08910521 -0.22854133 -0.11882062 0.058274798
-0.13258457 -0.3526685 -0.1361573 -0.177783 0.023302998 -0.10549985 -0.20484602 0.014571778
-0.11834973 -0.40872473 -0.15602681 -0.098408274 -0.2205911 -0.26471433 -0.0900662 0.0890417
-0.26591256 -0.2077382 -0.062089775 -0.017883338 -0.062998354 -0.16590779 -0.13266349 -0.46608678
-0.08801215 -0.47407272 -0.21686973 -0.017348194 0.25409406 -0.2144886 0.024047254 0.09722573
-0.032905173 -0.39529082 0.19451836 -0.3446495 -0.31818306 0.03631791 0.2839287 -0.060085073
0.049285866 0.028354459 -0.04968372 -0.24389957 -0.25884372 -0.1946208 0.24060078 0.15576087
0.005435438 0.19264938 0.14080448 -0.074772365 0.15296729 -0.52886045 0.15055709 -0.1748244
0.182362 0.14473295 0.16994263 -0.18969813 -0.16631281 0.28095242 -0.005038728 -0.41601807
-0.3674822 -4.110246e-05 0.29810026 0.11503808 -0.047526754 0.024353564 -0.081782356 -0.029621653
-0.05381254 -0.21011026 0.05021968 -0.24521887 0.44004974 -0.169781 -0.38150024 -0.19180942
0.21163109 -0.12088089 0.49371505 0.673325 -0.32756045 -0.033418957 0.14537075 0.18830137
-0.34978795 -0.4382512 -0.26505393 -0.13975321 -0.0773621 -0.57961667 -0.32389715 0.06399416
-0.4255387 -0.4916271 -0.112060696 -0.10001664 -0.1847873 -0.25418568 -0.10080776 -0.14876755
-0.3179057 0.07000855 -0.51776767 -0.5150244 -0.056459162 0.2567825 0.1757189 -0.31622297
0.11162394 -0.3871931 -0.52415776 -0.12472588 -0.4424782 -0.10038206 -0.018077126 -0.09141895
-0.093446285 -0.27477708 -0.15370853 -0.44035518 -0.300215 -0.31422427 -0.3223975 -0.06503599

lstm.bias_hh_l0 f4 [200]
00000000: 153c 11bf 1cfc 74be 7d61 0abe e3df 80bd
00000010: 9041 e03e c97e ba3e 879c 93be aa71 debe
00000020: 90dd 033f 61e4 22bd dfd8 e3be db2c dcbe
00000030: 477f 9ebe aae7 5abe 326e f0bd 8eba 03bf
00000040: 64e0 0ebf 5a0d d73c 0202 13bb a0b1 17bf
00000050: 60c0 71be 4d7a ffbe aca9 37be dc3e 95be
00000060: e62c 9ebc 3214 18bf 5ec6 18be 2ed3 35be
00000070: 700a 20bf 5ddb 3ebe 9f1a 0dbe 6ede b8bc
00000080: dfed 1b3e d344 febe ca07 84be 3b74 28bf
00000090: e0e8 37bf d174 cdbe 9132 cbbe 36e1 9abe
000000a0: 0314 94bd f0fd 2d3d 3705 89be dcbc babe
000000b0: c8a8 dcbd aa37 26bf 5d86 80be b974 9e3c
000000c0: 4aa6 29bf 8773 e3bc 7db7 373d 48be 9ebd
000000d0: be70 41bd ce19 cbbd d11b babe db33 0fbe
000000e0: 7665 193d c5ff 16bf ba4e 2dbd 1d4a 6cbe
000000f0: 99cc 623d bbfb afbc 2f34 f9be 26c8 a5be
00000100: 3c56 c5bd 3309 34be ba99 d5bd b2bb d63d
00000110: d14d d9bd 4d36 80be 301e e7bd 4a85 90bc
00000120: 3060 36be 034e bebe 464c c5bd 3fad c7be
00000130: 5b47 1fbe 0600 88bc d6e2 9cbe 202e 613c
00000140: 744f d7bd c0c3 a0be 688d a9bd 4966 4fbe
00000150: 44c7 3abe d725 41be 532e 22be 8f2d a53d
00000160: 8f66 6cbe e287 68bc 6a2b 9c3d b5d1 573d
00000170: 1d4c 81bd 7ead c4bd 794d 5f3c 3f53 bcbe
00000180: a725 123c fe4d 01bf a9c0 7abe 86b7 2bbe
00000190: be21 253e 5e2b 433c ef0c 503e 4c50 693c
000001a0: 06ef cabd c35a 8fbe 216b bc3e 307e 98be
000001b0: 7096 f0be ab86 da3c 7412 2c3e 0bd0 9dbe
000001c0: 256e 033e e0a6 cabc 9c93 1a3d 41ab cabe
000001d0: fd69 11be 8f9e 293b 925f 863d add2 693e
000001e0: 5388 2fbd b950 6c3e 5ea2 673b ebb5 4ebd
000001f0: 36d9 0c3c b9f3 c2be 2ed5 20bd e97c 3dbe
00000200: a48d 8c3e d16d 963d fab2 ca3d fc24 aebc
00000210: 85fb 83be 1423 013d 09ed 04bb 7875 91be
00000220: d46d 5cbe e4a1 723e cf94 553e 2309 973e
00000230: 7efb 4f3d 7e76 903b 6903 013e bab6 2c3e
00000240: cea8 f1ba 7bc9 81be b1b6 913d 74b7 37be
00000250: 69de dc3e 383c a7be 148c ddbe c0fb 6abe
00000260: a456 033e 98d5 91bd fcbe bc3e 3134 483f
00000270: 7135 c0be b61f 96be b967 bf3e 65da 413e
00000280: 6318 76be e435 babe d8a9 a7be 1ba5 41be
00000290: 15de f43b 6af0 1abf 28fd 65be 5ba0 f63d
000002a0: a90a f4be aab4 91be 2713 edbc b80c 6fbd
000002b0: cc49 05be 8bcb acbe bfd7 1bbd 78dc 9dbd
000002c0: 6d82 c0be 653d 11be 54ae e8be 8d52 debe
000002d0: def0 d3bd cba1 893e 3c5d 813e 3c95 9fbe
000002e0: 855a b23c 47bb 1ebe 05da b2be 473c 23be
000002f0: e503 09bf 421a 62be ceff b4bd e655 e1bd
00000300: 9e9f c3bd 5b7f bcbe 7f97 a53d 80f6 90be
00000310: 56bf b6be 6658 5dbd 4818 47be 15dc 8bbd
-0.567323 -0.23924297 -0.13513751 -0.06292703 0.4380002 0.36424854 -0.28830358 -0.43446094
0.5150995 -0.03976858 -0.44501397 -0.43002972 -0.3095648 -0.21377435 -0.11739768 -0.51456535
-0.5581114 0.026251484 -0.0022431617 -0.5925541 -0.23608541 -0.49897996 -0.17935818 -0.2914952
-0.019308519 -0.59405816 -0.14919421 -0.1775634 -0.62515926 -0.18638368 -0.13779686 -0.022567
0.1522746 -0.49661884 -0.25787193 -0.65802354 -0.71839714 -0.40128186 -0.39687017 -0.30249947
-0.072303794 0.0424785 -0.2676179 -0.36472213 -0.1077438 -0.64928687 -0.2510251 0.019342767
-0.6626936 -0.027765049 0.044852722 -0.07751137 -0.04722666 -0.09917031 -0.36349347 -0.13984625
0.037450276 -0.58984023 -0.042311408 -0.23075147 0.0553709 -0.02148234 -0.48672625 -0.32379264
-0.096355885 -0.17581634 -0.10429712 0.10485019 -0.106105454 -0.25041428 -0.11285055 -0.017641682
-0.1781013 -0.37168893 -0.09633689 -0.38999364 -0.15554564 -0.016601574 -0.30641812 0.013743907
-0.10513201 -0.31399345 -0.08278924 -0.20253862 -0.18240076 -0.18862091 -0.15837984 0.0806533
-0.23085998 -0.014192553 0.07625468 0.052690227 -0.063133456 -0.096034035 0.013629311 -0.36782262
0.00892011 -0.5050963 -0.24487557 -0.16769227 0.16126153 0.011912195 0.20317434 0.014240336
-0.09908871 -0.27998933 0.36800483 -0.29783773 -0.46989775 0.026675543 0.16803914 -0.30822787
0.12834986 -0.024737775 0.037738428 -0.3958378 -0.14200588 0.0025881862 0.06561197 0.22834273
-0.04285462 0.23077668 0.003534458 -0.05046646 0.008596709 -0.3807657 -0.039265804 -0.1850468
0.27451813 0.073451646 0.09897418 -0.02125787 -0.25777832 0.031527594 -0.0020282886 -0.28409934
-0.21526271 0.23694569 0.20857547 0.29499158 0.05077695 0.0044086566 0.12598957 0.1686658
-0.0018437149 -0.2534903 0.07114924 -0.17941076 0.43138435 -0.3266313 -0.43270934 -0.22947598
0.1282602 -0.07120818 0.3686446 0.7820464 -0.37540773 -0.2932107 0.37383822 0.18930967
-0.2403274 -0.3636924 -0.32746768 -0.18910639 0.0074727633 -0.6052309 -0.22459853 0.12042304
-0.47664383 -0.28458148 -0.028939797 -0.05836174 -0.13016433 -0.3374904 -0.03804755 -0.07708067
-0.37599507 -0.14183576 -0.45445502 -0.43422356 -0.10348676 0.2688125 0.25266445 -0.31168544
0.021771679 -0.15501128 -0.3493196 -0.15940963 -0.5352157 -0.22080329 -0.08837853 -0.11002712
-0.09551929 -0.36815915 0.08085536 -0.28313065 -0.35692853 -0.05403938 -0.19442856 -0.06829087

linear.weight f4 [1, 50]
00000000: 6331 59be 7f83 843e 9d49 d93e 3825 9ebe
00000010: 0e8e 11bf 095b fa3e e9c3 b9be e04f dd3e
00000020: 4fb0 03bf 2153 c63e 8b4d 8bbe 512a b83e
00000030: 535b b6be 6fc6 9ebe df28 eabe 6e14 c43e
00000040: 8f45 a73e 8804 a63e 1620 753e 3eb9 65be
00000050: f9ba 9b3e 5225 eebe 47d8 a0be c3da a23e
00000060: f40d d8be 0e55 083f 93a0 6fbe 7c35 ce3e
00000070: df21 393d 1b0a 7fbe 5582 56be a17b 4abe
00000080: cf24 c1be a5d6 9abe 385c 68be f64d a73e
00000090: d790 9e3e c45a 21be 4bc9 24be 7dd4 86be
000000a0: cde9 b83e 7d1d cc3e 4753 98be 85d4 5bbe
000000b0: 1853 983e fcdf 8a3e a254 7ebe aeb1 4d3e
000000c0: bd65 c8be b572 c2be
-0.21210246 0.25881574 0.42438975 -0.3088777 -0.56857383 0.4889758 -0.3628228 0.43225002
-0.514409 0.38735297 -0.27207598 0.35969785 -0.3561655 -0.31010768 -0.45734307 0.38296837
0.32670256 0.32425332 0.23938021 -0.22433946 0.30416086 -0.46512848 -0.31415007 0.31807527
-0.42198145 0.53254783 -0.23401098 0.4027518 0.045198318 -0.24906199 -0.20948155 -0.19773723
-0.37723395 -0.30241886 -0.22691429 0.32676667 0.3096988 -0.1575728 -0.16092412 -0.2633399
0.36115876 0.39866248 -0.29751036 -0.21467789 0.29750896 0.27124012 -0.24836972 0.2008731
-0.3914012 -0.3797814
