saved_models/EnsembleLSTM_NVDA.pt (torch, 223070 bytes, 26 tensors)

lstms.0.lstm.weight_ih_l0 f4 [200, 1]
00000000: b99b 7ebc cb21 76bd 74c2 04bf 5d32 19bf
00000010: 7480 d8be c365 53be 64af 2cbf 454e 403e
00000020: 68e3 6cbc a4f2 0fbc a21b 3f3e 5217 8d3a
00000030: 280b efbe 168d 2f3e a81e 06bf 934f a2be
00000040: 3e97 323e 6c64 10bf 1935 2a3d 3dd9 1ebf
00000050: d1aa 543c 5e65 213e ac0c ba3d 4eab 323e
00000060: 3a1d 87be d9f3 42be 9984 9ebe 2ec6 45be
00000070: 073d 6ebe e687 5abd 926c 6dbe 3d41 a43d
00000080: c526 0a3f a2b4 90be f747 603e 6748 cd3d
00000090: bad5 53bd 9407 253e a0be 22bd 4045 543e
000000a0: 84f7 fa3d 5e74 d43d 7726 0e3e 604e 74be
000000b0: a6a2 61bd d2c2 90bb 9ee1 983d 9edc 15bf
000000c0: feb3 49bf a708 ca3d 341f 783e f777 723e
000000d0: 1697 9fbe f218 29be 4697 1a3e e537 763d
000000e0: 25b5 c3be 3a63 433e 9c67 963d a49f 7b3e
000000f0: 67be 413e 0d4f ea3d 0242 4d3d 0ef7 633e
00000100: b21f 26be 99d4 e33d 9f26 323e aabf cebe
00000110: c8c2 413e e1a1 8dbe 3404 bb3d 6732 473e
00000120: 84ef 3c3e 28e8 743e a1ee 04bf a8f4 4cbe
00000130: 6192 3e3e 8d85 563e cfa7 1dbe 6f1a 5a3e
00000140: 82d7 3b3e e9d8 4d3d e8c9 32be c375 143e
00000150: 6b2d 923e 64b2 3e3e d9c0 1cbd 70f2 463e
00000160: 7869 703e f7fa 543e 5629 743e 1201 a73d
00000170: 0ca8 47bc 8925 77be a77a 303e c81c 9d3e
00000180: c781 463e 9ce3 cabe 682f 8ebe d171 693e
00000190: e7ab 903d 1ae9 063d a8f9 02bc a076 79bd
000001a0: 6b36 9f3b c131 543d 24d8 db3c 04d8 533e
000001b0: 14be c9bd d043 d8bd eecf 67be 9063 41be
000001c0: 9c11 f3ba 4bcb 39be 91a0 ad3b a520 56bc
000001d0: 1772 9c3e a051 eabb 7b50 82be ce46 113d
000001e0: e8f1 ecbd 9594 0b3e c523 043e 2e00 5cbe
000001f0: b16b 55be 47ce 523c cca6 463e 0f42 30bd
00000200: 2c5b 35be 0a12 9a3d f570 39bd 23d8 ec3d
00000210: b87a f9be b345 ec3c fdac 89be c8ad 04be
00000220: 051f 053e 8619 443e dc5e 313e 2818 9b3e
00000230: 3283 2fbe be39 77be 1cda 67be bf31 f4bc
00000240: 3a89 aebd 5aec 0d3e bcf2 5ebe 8d09 513d
00000250: 80a5 883c 4fa0 dd3d 0cfe 663d ccd8 19bd
00000260: 8895 cbbe b984 d8be e695 ddbe 0c98 3dbe
00000270: d533 3fbf 3a56 453e ca72 a5bc 8995 e63c
00000280: 4556 4c3e 776b 983c 0835 e8be ab10 793e
00000290: da95 0bbf de33 9cbe e29d 413e 8ea8 0abf
000002a0: 4774 e63d c3db 2fbf dc1f ef3c 1a68 493e
000002b0: 2221 ef3d 4fbb 3b3e 91dd c3bd db47 38be
000002c0: 2c88 6fbe a498 27be 29f1 4fbe 0635 9ebb
000002d0: 3bc2 8cbe 7935 b33d ee45 da3e 68d2 a6be
000002e0: c88e 833e d45d dc3d d0e0 0fbd 14a7 353e
000002f0: 204d d83c 65db a43e 8fb1 253e afbe 0f3e
00000300: 3e10 383e 2957 2bbe 15ff e6bc 433e 8c3d
00000310: 1eb4 fd3d 0652 f3be 7242 46bf d574 c63d
-0.015540057 -0.06009082 -0.5185921 -0.59842473 -0.42285502 -0.20644288 -0.67455125 0.18779857
-0.014458515 -0.008785877 0.18662885 0.0010764396 -0.466882 0.17143664 -0.5239053 -0.31701335
0.17440507 -0.5640323 0.041554544 -0.6205023 0.012980179 0.15761325 0.09084448 0.1744816
-0.26389486 -0.19038333 -0.3096054 -0.19313881 -0.23265468 -0.05335226 -0.23185948 0.08020256
0.5396541 -0.28262812 0.21902452 0.10023575 -0.051717497 0.16116172 -0.039732575 0.20729542
0.12254241 0.10373758 0.1388186 -0.23858023 -0.055086754 -0.0044177556 0.07464908 -0.5853976
-0.7879027 0.098649316 0.24230653 0.23678575 -0.31169957 -0.16513422 0.15096769 0.0601119
-0.3822414 0.1908082 0.07343981 0.24572617 0.18920289 0.11440859 0.050111778 0.22262213
-0.16223028 0.11124534 0.17397545 -0.40380603 0.1892196 -0.27662566 0.09131661 0.1945282
0.18450743 0.23916686 -0.5192662 -0.20015204 0.18610527 0.20949383 -0.15396045 0.21299146
0.18343928 0.05025569 -0.17459834 0.14498048 0.28550276 0.18622738 -0.03826985 0.1942842
0.23477733 0.2079886 0.23843893 0.08154501 -0.012186062 -0.24135412 0.17234288 0.3068602
0.19385444 -0.39626777 -0.27770543 0.22797324 0.07064038 0.032937147 -0.007994093 -0.060904145
0.004858782 0.05180526 0.026836462 0.20687872 -0.09850708 -0.10559809 -0.22637913 -0.18885636
-0.0018544677 -0.18143956 0.005298682 -0.0130693065 0.30555794 -0.0071508437 -0.25452027 0.035467915
-0.115695775 0.13630898 0.1290427 -0.21484444 -0.20841862 0.012866563 0.19399565 -0.04303175
-0.1771056 0.07522972 -0.04527374 0.11564662 -0.4872644 0.028841829 -0.26889792 -0.12956917
0.13000114 0.19150361 0.17321342 0.30291867 -0.17139891 -0.2414312 -0.22641796 -0.029808877
-0.08522268 0.13859692 -0.21772283 0.0510345 0.016680479 0.10821592 0.05639462 -0.03756027
-0.3976252 -0.4228876 -0.43278426 -0.18515033 -0.74688464 0.19271174 -0.020196337 0.028147476
0.19954784 0.01860593 -0.4535296 0.24322765 -0.5452553 -0.30508322 0.18907884 -0.54163444
0.11252647 -0.68694705 0.029189996 0.19668618 0.116762415 0.18333171 -0.09563745 -0.1799616
-0.23391789 -0.16366822 -0.20306839 -0.004828098 -0.27491936 0.087504335 0.42631477 -0.32582402
0.2569487 0.10760084 -0.035126507 0.17739516 0.026403964 0.32198635 0.16181014 0.14037584
0.17974946 -0.16732468 -0.028197804 0.06847813 0.1238787 -0.47523516 -0.7744514 0.09690253

lstms.0.lstm.weight_hh_l0 f4 [200, 50]
00000000: d12e fb3d 6161 6cbe bac8 31bf b825 dbbe
00000010: 5e7f 9f3e 4bb4 b9bd 4dd0 63be 9d0b 85bb
00000020: 37f3 a63d d11e 7b3d 3e53 9b3e f54e 573e
00000030: d6e8 50be b034 893e 37dc b13e 702d e3bc
00000040: 3a5b 0cbd 4680 a5be 6b76 e9be 31bc e83c
00000050: 7a2a c03d 5092 e43e 7a97 503e fd2d 353e
00000060: acef 34bf 372d a7be 8d5e eabe adfc 4fbe
00000070: bba3 df3b ab3e ffbd b27b b3bc 1afe 073e
00000080: d29f 263f f2a3 a0be b72e 443e 0798 ed3e
00000090: df25 c9be afdd d2be 534f 96bc b987 0abf
000000a0: c4e6 413e 8737 a6bd 744a 4a3e 5944 f3be
000000b0: a803 763d 2885 16bc 9d20 57bd 6446 f33e
000000c0: 8bf0 623e 81e2 1fbe 5ee0 08be 502a ecba
000000d0: 2738 d8bd 70ab 363d 0dac d33c 8b4a 4dbe
000000e0: 1ef1 7fbd d041 19be 9006 8c3e 55f5 ce3c
000000f0: 3d80 a3bd f1de dc3d 850a 1f3d ee20 d13d
00000100: 7402 da3d 7a8c fcbd ae00 bfbc 1756 9abb
00000110: 54a4 2abd 4603 bebd 8a67 c03d 2990 38bd
00000120: eb3d 16bd eb74 07bb d55c 483c 4e17 4abd
00000130: 50f5 34be ab60 b33d 32db 2b3d c7d3 a9bd
00000140: 18d0 283e 1c88 59bb 0e1f 843e b9bd a0bd
00000150: ad15 303e 5187 813e fc74 0ebd 8181 64be
00000160: 9afd 893b 48d4 7abd e13e 84bd 083e 033c
00000170: d9d6 053e c1de bfbe 9d26 b73c facd 0e3e
00000180: 64b3 d63c f906 8abb 4ec6 a2bd 2878 0c3d
00000190: 2c7b 02be ae2e 24be f969 00be 6e80 35bd
000001a0: 7576 ae3d 1160 c5bd bddf 86bd ed7d 183e
000001b0: 79e5 ffbd 91de 223d a1e6 05bd 2057 b0bd
000001c0: 534c ddbd 330a d4bd 601c f1bc 89ec e4bd
000001d0: 018c d6bd e03b 19be 265b 593e 40b7 f4bd
000001e0: d9aa 6dbe 1968 02be e143 58bc edd9 18be
000001f0: 2933 7e3a 4cf2 02bd 344f 5d3d ce30 18bd
00000200: b0ac bc3d 5e99 79bc 905e b6bd 3fec 1a3d
00000210: 9f47 9f3e 9eb2 0cbe d9ec b4bd 1e90 e3bc
00000220: 8621 083e f596 c6bd e604 87bc 592e 51be
00000230: 4ce7 06be 03dc 7c3d 24a1 38bb 15b2 7f3e
00000240: 7f15 abbd c848 b93d 7321 cfbd db93 da3d
00000250: b5bf dd3d bb2d c5bc 69ba 63be de1d 38be
00000260: e7d3 74be 8776 15be f5ae 0c3e e3ac 10be
00000270: 82c2 08be bf15 84be dd6c 633e 0c2a 363e
00000280: 59c4 893e 3451 c53d 03b0 e7bd d679 103e
00000290: 1df5 333e 3101 ce3d 89a0 afbd 4718 8dbe
000002a0: e6ed 2d3e 697b 44bd 4f1c f2bb 2741 f9bd
000002b0: b9b3 dfbd c7ab faba c061 e2bd 41a5 19be
000002c0: 9333 32bd 2dce d23d c43a 763e abf6 c1bd
000002d0: 435c bf3d c56b 53be ef02 0a3f 5c94 51be
000002e0: 1dba 473e c745 a63d cb0e c5bb 02cd 98be
000002f0: e12a e1bc 98d5 febe 8cf3 dc3d 0edb fd3d
00000300: 9e40 d43d 03d3 1c3e c36a fb3d e53e c9bd
00000310: d74a a9bc 079d 9b3e 0f53 763d 5cfd acbd
00000320: 7991 02be 95f6 89be f67f ddbe 2aed 21be
00000330: 557e c23c 0ca9 33bc 6186 b03c 4d7e babd
00000340: e36f 753e 2e7e 8f3e 88df 1d3e c4b2 d63d
00000350: b7fc 24be 8a0d b03e d269 7d3e 7b06 183e
00000360: 34ab 62bd 2958 4cbe 214d 12be 1118 be3d
00000370: 4aa1 223e aadb 2e3e e4c3 5b3d 9648 b43d
00000380: 5534 b6bd 44ec 61be 93f7 50be 22f3 c43d
00000390: 045e 0f3e 8340 b9bc 34e5 2c3c b3e1 36be
000003a0: 11b4 123f b21e f7bd 6d47 913e 0f82 4d3e
000003b0: 0118 79be 9250 cebe d4f5 83bd 6fa5 19bf
000003c0: 2dc3 b73c af9d 32bd e43a 193e d72e 23bb
000003d0: 04d3 523e f146 0ebe 1768 683c cc1a 853e
000003e0: 8b93 82bc 888b 4bbd ce8f d53d 8b5b 2ebf
000003f0: 8ebc 47bf 8c24 12bf 3e24 a03e ad54 4b3e
0.12264789 -0.23084022 -0.6944691 -0.42802215 0.3115186 -0.09067591 -0.22247429 -0.0040602223
0.08151858 0.061308686 0.30336946 0.21026213 -0.2040132 0.2679801 0.34738323 -0.027731627
-0.034266688 -0.32324427 -0.45598158 0.02841005 0.09383102 0.44642878 0.20370284 0.17693324
-0.7067821 -0.32651684 -0.45775262 -0.20311232 0.006824938 -0.12463125 -0.021909568 0.13280526
0.65087616 -0.3137508 0.19158445 0.4640505 -0.39286706 -0.41184756 -0.018348372 -0.54113346
0.18935686 -0.0811606 0.19754964 -0.47513083 0.06006208 -0.00918702 -0.052521337 0.4751464
0.22162072 -0.15613748 -0.1336684 -0.0018017981 -0.10557585 0.04459709 0.025838876 -0.20047967
-0.062485807 -0.14966512 0.27348757 0.025263468 -0.07983444 0.1078471 0.03882839 0.10211359
0.10644999 -0.12331481 -0.023315754 -0.0047099697 -0.04166062 -0.09277968 0.093947485 -0.045059357
-0.036680143 -0.0020669054 0.012229164 -0.04933863 -0.17671704 0.08758672 0.041957088 -0.082923464
0.16485631 -0.00331927 0.25804943 -0.07848687 0.17195769 0.2529855 -0.034779534 -0.22315027
0.00421114 -0.061237603 -0.06457306 0.008010395 0.13070239 -0.37474635 0.02235728 0.13945761
0.026208587 -0.004212257 -0.0794798 0.034294277 -0.12742299 -0.16033432 -0.12540425 -0.044311933
0.08518688 -0.09637464 -0.065856434 0.14891787 -0.1249494 0.039763037 -0.032690648 -0.08610368
-0.10805573 -0.10353508 -0.029432476 -0.11177928 -0.104759224 -0.14964247 0.21226177 -0.11949015
-0.23209704 -0.12735023 -0.013199777 -0.14926882 0.00096969545 -0.031969354 0.054030612 -0.03715592
0.09212625 -0.0152343195 -0.08904755 0.037822958 0.3110933 -0.13740012 -0.088342376 -0.027778681
0.13294038 -0.096967615 -0.016481828 -0.20427836 -0.1317417 0.061733257 -0.002817222 0.24970277
-0.083537094 0.09047085 -0.10113802 0.106727324 0.10827581 -0.024069658 -0.22239079 -0.17980143
-0.2390896 -0.14595996 0.13738616 -0.14128451 -0.13355449 -0.2579784 0.22209497 0.17789477
0.26907614 0.09634629 -0.113128684 0.14108977 0.17573972 0.10058821 -0.085755415 -0.27557585
0.16985282 -0.047969256 -0.0073886286 -0.1217063 -0.10922951 -0.001912468 -0.110538006 -0.15004446
-0.043506216 0.10293231 0.24045855 -0.09470876 0.093437694 -0.2064658 0.53910726 -0.20466751
0.1950459 0.08118778 -0.0060137263 -0.2984391 -0.027486267 -0.49772334 0.107886404 0.12395297
0.10363887 0.1531487 0.122762226 -0.09826449 -0.02066557 0.3039324 0.060137805 -0.08446762
-0.12750806 -0.2694594 -0.4326169 -0.15813127 0.02374188 -0.010965597 0.021548452 -0.09106121
0.23968463 0.28025955 0.15417302 0.104833156 -0.16112028 0.3438533 0.24747398 0.14846222
-0.055339053 -0.19955505 -0.14287235 0.09281934 0.1588184 0.17075983 0.053653613 0.08802907
-0.088967 -0.22062784 -0.20406942 0.096166864 0.14000708 -0.02261377 0.010552693 -0.17859535
0.5730601 -0.120664015 0.28374806 0.20069145 -0.24325563 -0.40295845 -0.06443372 -0.60018057
0.022431934 -0.04360741 0.14963871 -0.0024899745 0.20588309 -0.1389425 0.014184973 0.25997007
-0.015939495 -0.049693614 0.10427819 -0.68108433 -0.78022087 -0.57087016 0.3127765 0.1985652

lstms.0.lstm.bias_ih_l0 f4 [200]
00000000: 504c 86bf a5f2 f8be 14c4 8abe fae0 31bf
00000010: ba59 7dbf 0463 56bf 2610 99bf caf6 c2bd
00000020: 7a29 02bf 7b34 fcbe 878c cdbd 64c9 09bd
00000030: 6ea5 71bf a435 67bd a566 93bf 73d4 71bf
00000040: d800 053e 05af 34bf 33ac 15be a569 92bf
00000050: 735e 01bf a60a f1be b1a3 11bf 5b45 18bc
00000060: c254 adbe ac41 babe 0f1a 03bf c893 54bf
00000070: 622d 4ebe a192 d6be 893b 0fbf 54f7 2ebf
00000080: 073e 393f 440a 73bf fa4b 973d 52b3 32be
00000090: 23ac 99be 9c4b 913d 6188 d0be 7229 0b3e
000000a0: 8431 92be 43bd 57be 56d3 3fbe 5871 ccbe
000000b0: 3a6e e5be 39f6 2fbf 4f30 2cbc cf00 30bf
000000c0: 8514 84bf 30c0 31be 0a8c 90be 0741 adbd
000000d0: 6665 dfbe 3935 01bf 4bde a9be b347 4ebe
000000e0: 302e 1cbf dcee da3c 18b2 debd 6de9 14be
000000f0: b6f4 52be d56c 2ebe 0d03 abbe 3a52 9eba
00000100: caa5 e6be b234 acbe 0106 0dbe e860 02bf
00000110: aae6 7ebe 6d95 dcbe 50b9 35be ef62 00be
00000120: d7c9 303d c9cb fc3c 012c 10bf fdf8 e1be
00000130: ffc1 c0bd 9172 3bbe 4a92 4dbe aefe af3c
00000140: b493 ffbd f26e 09be fd49 77be 43d2 10be
00000150: eb6b babd 83cb 4dbe 008a 49be bfbb a33c
00000160: 725b 4bbe 1826 2c3d 4480 083d a40f 8dbd
00000170: 0309 6dbe 89c3 debe 9ceb c2bd a6ff 8eba
00000180: ab0e 13be 3dd8 aebe 5779 09bf 60c8 10bd
00000190: fa05 69be e759 86bd 88da ed3d 503a 023e
000001a0: 5e85 9dbc 5f4a 2bbe ba85 41bd b94e f73c
000001b0: e55a 213e b6db 433e ce1b b93d c566 38bd
000001c0: 4874 14bc d5ac 24bd 16ec aebb 74bf a93d
000001d0: 8049 13be d097 98bc 0d10 613e c07c d035
000001e0: 27e1 273e 81ff 50be 27c8 d2bd ed1d f13d
000001f0: 6110 413e 1816 773d 281c bcbd 620a b93a
00000200: 3ccb 613d 250b e7bd ef29 6cbd 9ece 48be
00000210: e937 f7bd caa3 053d ed2c b33c 4655 0fbe
00000220: db95 ecbc 070f 2c3e 389c d4bd 5c53 083f
00000230: 31b5 273e eda6 c43c d1dc e23d 9364 dc3d
00000240: d148 433e 5067 2bbe c637 d73d f6c6 22be
00000250: 2939 6bbd 47be 83bd 4fa9 b0bf ce0c d8be
00000260: 5310 92be 7266 29bf 63e0 37bf a368 56bf
00000270: 67fc 80bf dbc4 98bd 6c7e d7be e55d 2cbe
00000280: eed9 c0bd c019 66be 0098 73bf 3ba3 a0bd
00000290: ec53 51bf bfba 11bf 5f4b 5dbd 3f8b 34bf
000002a0: 0d96 2bbe 3411 99bf 974e 40be 86c8 efbe
000002b0: bc99 d7be f377 213d 52cf 76be 0cbd 01bf
000002c0: d004 a6be 17b2 66bf ae11 59be 8479 afbe
000002d0: ba9f fdbe f9f9 79be 40e3 1c3f 6270 73bf
000002e0: d98e 3aba a605 81be 582a 98be 9aca 6bbe
000002f0: a2fd 1abf 5b4a f13d bea7 c6bc 6162 1ebd
00000300: 2900 543b 69b3 1abe aace ccbe 9a3c a6be
00000310: d043 103d dca4 0dbf eeca 9cbf 9160 9fbe
-1.0492039 -0.48622623 -0.2710272 -0.6948391 -0.98965037 -0.83744836 -1.1958053 -0.095197275
-0.5084454 -0.4925879 -0.10036569 -0.033639327 -0.9439305 -0.05644764 -1.15157 -0.94464797
0.12988603 -0.7057956 -0.1461647 -1.143849 -0.50534743 -0.47078437 -0.568904 -0.009293879
-0.33853728 -0.3637823 -0.5121164 -0.83037996 -0.201345 -0.41908744 -0.5595022 -0.6834614
0.7236027 -0.9493754 0.07387538 -0.17451218 -0.30014142 0.070944995 -0.4072905 0.13590029
-0.28553402 -0.21068291 -0.18732962 -0.39930224 -0.4481066 -0.6873508 -0.010509565 -0.68751234
-1.0318762 -0.1735847 -0.2823184 -0.084596686 -0.43632048 -0.50471836 -0.3317741 -0.20144539
-0.61007977 0.026725225 -0.108738124 -0.1454217 -0.20601162 -0.17033704 -0.33400765 -0.0012078949
-0.45048362 -0.33633953 -0.13771822 -0.5092912 -0.24892679 -0.43082753 -0.17746472 -0.1253774
0.04316124 0.030858891 -0.56317145 -0.44135275 -0.09412002 -0.18305422 -0.20075336 0.021483745
-0.12479344 -0.13421229 -0.24149318 -0.14142708 -0.09102615 -0.20097165 -0.19681549 0.019986985
-0.19859102 0.042028517 0.03332545 -0.06887749 -0.23147969 -0.43508556 -0.09517595 -0.0010909929
-0.14361064 -0.34149352 -0.53700775 -0.035347342 -0.22756186 -0.06560116 0.11613947 0.12717557
-0.019228633 -0.16727589 -0.047246672 0.030188905 0.1575733 0.19126782 0.090385064 -0.045019884
-0.009060927 -0.040203888 -0.005338202 0.0828847 -0.14383507 -0.018627077 0.21978779 1.5533515e-06
0.16394483 -0.20409967 -0.10292082 0.11773286 0.18853904 0.060323805 -0.09185058 0.0014117474
0.05512546 -0.112814225 -0.05765718 -0.19610068 -0.12071211 0.032626905 0.021872008 -0.13997373
-0.02888005 0.16802607 -0.10381359 0.53252196 0.16377713 0.024005378 0.11077274 0.107613705
0.19070746 -0.1673863 0.10508685 -0.1589621 -0.05742756 -0.06432777 -1.3801669 -0.4219727
-0.2852808 -0.66171944 -0.7182676 -0.8375341 -1.0077027 -0.07459422 -0.4208864 -0.16832693
-0.09416567 -0.2247076 -0.9515381 -0.07843634 -0.8176868 -0.56925577 -0.054026958 -0.7052497
-0.16756459 -1.1958375 -0.1877998 -0.46832675 -0.42109478 0.039421033 -0.24102524 -0.5067909
-0.32425547 -0.90115494 -0.2119815 -0.34272397 -0.49535924 -0.24411763 0.61284256 -0.9509336
-0.0007116623 -0.25199622 -0.29719806 -0.23026505 -0.6054326 0.1178176 -0.024249908 -0.03866804
0.0032348728 -0.15107502 -0.40001422 -0.3246811 0.03522092 -0.5532968 -1.2249429 -0.31128362

lstms.0.lstm.bias_hh_l0 f4 [200]
00000000: 48a4 79bf 69f4 d6be 1b04 36be 4657 4dbf
00000010: eaa4 67bf 2851 6abf 3674 84bf 5c29 21bd
00000020: 4a18 30bf 1d39 c8be d254 4bbc 7482 78be
00000030: ba51 81bf 4ff2 c3bc 4d76 95bf f2c4 53bf
00000040: 6494 4f3e e6dd 1abf 7a74 86bd a745 96bf
00000050: 8e93 a9be fb71 24bf 7bbf e8be 8ea1 d2bd
00000060: 3e2c f3be 8cb9 febe b09d d1be ec96 40bf
00000070: aef7 16be f9b4 0bbf 1752 4ebf a49f 34bf
00000080: a151 2f3f 1e7e 89bf 3438 ddbd 9cc8 18bd
00000090: 3783 e8be c311 01bd 2ff0 e3be f216 cb3e
000000a0: e6ad eebe 7417 51bb 51d7 4bbd 88dc 87be
000000b0: 1c1a f4be 65cd 07bf 8e1c 03bd 11c4 32bf
000000c0: 11cd 8abf 2a49 2ebe d24f 0abf 20b2 43bd
000000d0: 26e1 0bbf f50b d2be 4421 69be 5730 2fbe
000000e0: 96a3 14bf 3540 98bd ce2a cdbd 418d 86bd
000000f0: 066b 0abe 09e3 a53c 1a95 efbe 9f5f 033e
00000100: 5cfd 92be 5d8c 57be fbc9 2e3d b38c f8be
00000110: b086 31be b7fb bebe 9824 ccbd 927a 8fbe
00000120: 932d f5bd 104e 443c 8b44 23bf 51c2 ddbe
00000130: 87c5 28be dc5b 04be be56 a6be a751 673d
00000140: 07f9 2ebe a1dc 14bd e346 35be 7398 b5be
00000150: 9cdf f83b 885d 0cbc fc37 05be d7f8 d63d
00000160: ea42 2dbe 8840 e23d 720f 653d 5f1c 32be
00000170: 2116 3dbd 69a9 a0be 2b97 06be 5c89 6cbe
00000180: c228 bcbd 81bc cabe 2902 febe edf0 ddbd
00000190: 44fc 10be ca2e 9b3d 0762 7a3d 6ba3 363d
000001a0: c3e0 81bb 369e bcbc caee 35bb cd09 e9bd
000001b0: 65cf 313e 74b5 55bc d219 92bd dc02 983d
000001c0: a10b 2c3c 3614 e4bd b451 e6bb 50ae 3bbd
000001d0: c7c8 353d 37a1 5f3d 2f70 333e 75cf bbbd
000001e0: a18e bb3d 9f8f b0be 12c3 81be 2425 c73c
000001f0: bd56 3d3e 421e a5bd a80d 37bd 6006 143e
00000200: 8af8 6d3d 906b e2b8 edf5 2d3e 6450 6abe
00000210: 6c94 c0bc 03ff e7bd 1808 a3bd 0e66 fabc
00000220: 151a d9bc d866 ca3d b494 1bbe 69a7 b13e
00000230: 753a 3d3e 9e86 d63d 2ac7 113d 1538 063e
00000240: cbd4 a93d f11c c9bd 1d16 173e 5281 423c
00000250: 6212 473c 906c 19be eb20 b0bf f4fb b4be
00000260: 61a1 91be 55f2 09bf 4b14 57bf 4770 70bf
00000270: f526 7abf c2ac 6abe 2225 20bf 63fb 0dbe
00000280: 5622 b53c 18e5 56be 6285 8fbf 4182 4a3d
00000290: b034 7fbf 16b3 03bf 97eb c43d f1f3 26bf
000002a0: 9790 44bd 6601 92bf a2d7 bfbe 8366 11bf
000002b0: 50da 59be 3413 99bd 8c6f 0ebe 77c0 c4be
000002c0: f380 00bf 8928 4abf de33 84be 4626 a7be
000002d0: 9a32 e8be 7d4e bcbe 3849 363f 427f 35bf
000002e0: 53e5 b8bd f195 04be 6e39 a6be c338 65bd
000002f0: e3ee b8be f6f0 093e 99ff 41bd 812b 79bd
00000300: ef28 e7bd ce72 fcbd ccfb 05bf eedd eabe
00000310: f503 35be 59e3 12bf ba4c 85bf 0ead 02be
-0.975163 -0.41983345 -0.17775004 -0.80211294 -0.90486014 -0.91530085 -1.0347965 -0.039346084
-0.6878706 -0.39106074 -0.012410359 -0.24268514 -1.0103066 -0.023919253 -1.1676728 -0.8272239
0.2027145 -0.6049484 -0.06565185 -1.1740006 -0.33120388 -0.6423642 -0.45458588 -0.1028472
-0.47494692 -0.49750936 -0.4094062 -0.7523029 -0.1474292 -0.5457302 -0.8059401 -0.7055609
0.6848393 -1.0741613 -0.108017355 -0.03730069 -0.4541261 -0.03151108 -0.44519183 0.39665943
-0.4661705 -0.0031904848 -0.04976589 -0.2653544 -0.4767617 -0.5304778 -0.032009654 -0.69830424
-1.0843831 -0.17020097 -0.54028046 -0.047777295 -0.54640424 -0.41024747 -0.22766596 -0.17108284
-0.5806211 -0.074341215 -0.1001793 -0.06569911 -0.13517389 0.02024986 -0.46793443 0.12829445
-0.28708923 -0.21049638 0.042673092 -0.48544845 -0.17336535 -0.37301418 -0.09967917 -0.280232
-0.11971583 0.011981502 -0.63776463 -0.43312314 -0.164816 -0.12925667 -0.32488054 0.056474354
-0.17087184 -0.03634322 -0.17702822 -0.35467872 0.0075950157 -0.008567221 -0.13009638 0.10496681
-0.16920057 0.110474646 0.055922933 -0.17393635 -0.046163682 -0.3137925 -0.13143604 -0.23099273
-0.091874614 -0.39596942 -0.49611023 -0.108369686 -0.14158732 0.07577284 0.061128642 0.04458944
-0.0039635613 -0.02302466 -0.0027760738 -0.113788225 0.17364271 -0.01304375 -0.07133831 0.074224204
0.010500819 -0.111366674 -0.0070287827 -0.045820534 0.04438093 0.054597106 0.17523263 -0.09170429
0.09158064 -0.34484574 -0.2534414 0.024309702 0.1849012 -0.08062412 -0.044690758 0.14455557
0.058098353 -0.00010796555 0.16988344 -0.22882229 -0.023508273 -0.113279365 -0.07960528 -0.030566242
-0.026501695 0.09882897 -0.15193444 0.34698036 0.18479331 0.10474895 0.03559033 0.13107331
0.0829254 -0.09819973 0.1475453 0.011871653 0.012150379 -0.1498282 -1.3760046 -0.35348475
-0.28443435 -0.53885394 -0.8401534 -0.9392132 -0.97715694 -0.22917464 -0.6255666 -0.13865428
0.0221111 -0.2098583 -1.121258 0.049440626 -0.9968977 -0.5144514 0.09615248 -0.65215975
-0.047989454 -1.1406677 -0.37469202 -0.56797045 -0.21274686 -0.07474366 -0.1390974 -0.3842809
-0.5019676 -0.789681 -0.25820822 -0.32646388 -0.45351106 -0.36778632 0.7120547 -0.70897305
-0.09028115 -0.12947823 -0.3246569 -0.055962335 -0.36119756 0.13470826 -0.047362898 -0.060832504
-0.11287104 -0.12326585 -0.52337337 -0.45872444 -0.1767729 -0.57378155 -1.041404 -0.12761328

lstms.0.linear.weight f4 [1, 50]
00000000: 9b4c 35bd 1f90 1ebe 0f7b c9bc 3e06 e4bc
00000010: da65 163c c28a 0b3b c7d6 a13c cc69 70be
00000020: 4638 163c 78ed 113e 397f 5d3e 8fea 203e
00000030: 1e19 22bb 21db 8c3e 1251 c93b 75bf 8dbb
00000040: feda 7dbe 8233 84bc 2b4f 593e 11bb 0b3d
00000050: b767 0e3e f452 f6bd 4d27 10be 751c 523e
00000060: d283 943c fc7b 86bc 7680 22bd 1b3c 463b
00000070: 8a4f c43d 3867 f7bd 20a3 01bb f9ed 9fbd
00000080: d715 133f 3c41 d93b 4515 8a3e ba1f 2f3e
00000090: eb60 edbd 6697 74be b26c c7bd b5d5 a1be
000000a0: d9bc 373e 9a15 713e e4d7 853e c6b9 1ebe
000000b0: b10c c93c 952a 05be d257 553e a419 c23c
000000c0: 360b a83c 16ee 2dbe
-0.04426251 -0.15484665 -0.024594812 -0.027835008 0.009179557 0.0021292423 0.019755734 -0.23477858
0.00916869 0.14250743 0.21630563 0.15714477 -0.002473421 0.27510932 0.0061436975 -0.004325802
-0.2479057 -0.016137842 0.21221606 0.034113947 0.13906752 -0.12027541 -0.14077492 0.20518668
0.018129263 -0.016416542 -0.03967329 0.0030248228 0.09585483 -0.12080234 -0.0019781068 -0.078090616
0.574552 0.006630091 0.26969352 0.17101946 -0.11590751 -0.23885879 -0.09737529 -0.31608358
0.17943133 0.23543397 0.26141274 -0.15500554 0.024542185 -0.13004525 0.20834282 0.023693867
0.020513158 -0.16985354

lstms.1.lstm.weight_ih_l0 f4 [200, 1]
00000000: 280e 72be 7cd0 c33d 4126 4ebf 2d75 f3bd
00000010: 25d2 423e c657 913e 9925 0c3e d244 893d
00000020: 046a 913e 141e 26be 041d 10be c2a3 bb3d
00000030: 497d b83c 6204 64be 1c34 4e3e 9983 723e
00000040: 9108 c2be f494 433e b76d 90be 01c8 97be
00000050: 422b 2fbe 67fb a53e 6e8e 083e 8057 873e
00000060: 2c47 7fbe 30ff f53d fd89 d43d bc1d 6b3e
00000070: 5a3d e83e bc79 463e b925 7d3e 6f8f 1b3e
00000080: 0c63 ef3d 4b0c 303e cab5 96be e0bc a03e
00000090: 0800 2ebe 8d93 c73e 352c dcbd a643 e5bc
000000a0: d79c 8a3e 525b fa3d 1151 2f3e 869c 873e
000000b0: 0553 96be 8faf 17be a98f 8dbe 61f0 933e
000000c0: a122 9d3e 2faa 363e ae46 afbe e9bf ad3d
000000d0: da5a dcbe a7b9 04bd dbae 993e b2fc 833e
000000e0: 2183 1bbe c083 54be 8f32 863e f07e babe
000000f0: b9c3 8ebd bd9c e53d 9124 36be 8db0 823c
00000100: 893a 2b3e 8e6d da3c 786b 1d3e be7e 383e
00000110: e127 a2be 9081 5ebe d553 aabe 0e03 863e
00000120: 4713 6f3e d8e5 97bc 4180 613e 9b39 753d
00000130: 610e 10bf 4d5d a7be 798e cd3b 3b25 95be
00000140: 1214 993e e824 1f3e 2686 843d d7d2 953e
00000150: a0a8 cebd 8cd6 8b3e 5c9f 8d3e 4713 423d
00000160: 4aee 8dbe c903 3dbe 388e 0b3e 51e3 243e
00000170: 661a 843e f853 1d3e 0873 a7be 1cb9 e73c
00000180: edbf 9a3d d51c 9a3e 1bbb 0f3e 879f 7b3e
00000190: ab2f 823e 1621 813e ed71 8f3d c5ac 3bbd
000001a0: d886 4bbe 981b 87be 8933 56be bc00 aebe
000001b0: 4c0a 63be af1e 0ebd 1d70 c33e 6e23 15be
000001c0: 93b8 bcbd 7f69 8a3e 6744 1b3e b060 693e
000001d0: b843 16bc 4df1 5d3e 56ce a43d 0bf9 153e
000001e0: 8071 8a3d c701 3cbe 2bad eb3d 8489 7bbe
000001f0: 1485 d0be d37b 0b3e 1ae5 073e 79c1 783e
00000200: bd0a 39bf ebce 8dbe 106c 443e 55f9 413e
00000210: f2da 28be 1714 5c3e db0f 0bbe 460b 40be
00000220: 5b69 babe a9ce d4be aca9 d93e ad60 12bc
00000230: 2c4b 663e 7c73 3c3e 465d 553e 197d 313e
00000240: 931e ba3e 0306 d3be bfb8 d03d 20d1 6bbe
00000250: 9501 94be 0e56 3a3e 0297 41be fb43 243e
00000260: 95e9 4dbf 5871 20be dcca ae3e cd02 9a3e
00000270: 478f 103e 6738 f43d 346c 993e b15f 45be
00000280: a495 fbbd 65ed e33d 053b 9b3d 076f 28be
00000290: 9700 743e 79bd 593e 0d62 afbe 585c a03e
000002a0: a27a 8abe a169 8abe 6320 33be 4183 b23e
000002b0: b7b1 363e 8376 463e 45c8 32bd d01c 073e
000002c0: 831e fc3d af22 3d3e 9941 ae3e 72e5 f83d
000002d0: 809b a23e 0a07 433e f1cc 173e a25b 953e
000002e0: 7b74 31be b660 673e f38f 933d 6833 a53e
000002f0: 5864 97bd adb0 8cbc d0f7 773e c88a 233e
00000300: 339e 363e 27ef 9c3e 8a13 99be 0645 073d
00000310: 9c3e 94be 3452 983e 1f91 943e af58 603e
-0.23638213 0.095612496 -0.8052712 -0.11887584 0.19025476 0.28387278 0.13686217 0.067025796
0.28401196 -0.16222411 -0.14073569 0.09162094 0.022520678 -0.22267297 0.20137066 0.23683013
-0.3789716 0.1909979 -0.28208706 -0.29644778 -0.17106345 0.32418367 0.13335583 0.26433945
-0.24929494 0.12011564 0.10377882 0.22960562 0.45359308 0.19382375 0.24721421 0.15191434
0.116888136 0.1719219 -0.2943557 0.313941 -0.169922 0.3897976 -0.10750619 -0.027986359
0.27072784 0.12224449 0.17120768 0.26486605 -0.29360214 -0.14813064 -0.27648667 0.28894332
0.30690482 0.17838357 -0.34233612 0.084838696 -0.43038064 -0.032403614 0.30016217 0.2577873
-0.1518674 -0.20753384 0.26210448 -0.3642497 -0.06970925 0.11211536 -0.17787386 0.015953327
0.16721548 0.026663568 0.15373027 0.18017098 -0.3167105 -0.21729112 -0.33267084 0.26174206
0.23347197 -0.018542215 0.22021581 0.05986939 -0.5627194 -0.3268837 0.0062730876 -0.29129967
0.29898125 0.15541422 0.06470899 0.2926242 -0.100907564 0.27312124 0.27660644 0.047381666
-0.27720863 -0.18458475 0.13628471 0.1610234 0.2580139 0.15364063 -0.3270495 0.02828651
0.07556138 0.30100122 0.14036219 0.24572574 0.25426993 0.25220555 0.070041515 -0.045819063
-0.19875658 -0.2638824 -0.20918097 -0.33984935 -0.22171897 -0.03469723 0.38171473 -0.14564297
-0.09214892 0.27033612 0.15162812 0.2279079 -0.009171419 0.2167408 0.08047168 0.14645784
0.0675993 -0.18360053 0.115076385 -0.24564177 -0.4072653 0.13621454 0.13270989 0.24292554
-0.7228201 -0.27696928 0.19181848 0.18942769 -0.16489771 0.21492039 -0.13580267 -0.187543
-0.36408505 -0.4156392 0.42512262 -0.008934182 0.22489613 0.18403429 0.20836362 0.17332877
0.3635145 -0.41215524 0.101914875 -0.23028994 -0.28907457 0.1819689 -0.18905261 0.16041557
-0.8043454 -0.15668237 0.34139144 0.30080262 0.14117156 0.119248204 0.29965365 -0.19274785
-0.12284401 0.11129264 0.075796165 -0.16448604 0.2382835 0.21263684 -0.34254494 0.31320453
-0.27046686 -0.27033713 -0.17492823 0.34865764 0.1784123 0.19381146 -0.043648023 0.13194585
0.12310507 0.18470262 0.34034422 0.12153138 0.31759262 0.19045654 0.14824273 0.29171473
-0.1732959 0.22595486 0.072051905 0.32265782 -0.07392186 -0.01717409 0.24215627 0.1597091
0.17833786 0.3065121 -0.2989772 0.03302481 -0.28954017 0.29750216 0.2901697 0.2190883

lstms.1.lstm.weight_hh_l0 f4 [200, 50]
00000000: 66cf 923d 09a6 15be a928 0b3c e5eb 8f3c
00000010: 0806 8f3c 97ab b7bd 623f c2bc efdf ccbd
00000020: e758 3bbe ff13 f53d 5075 52bf f4c6 0a3e
00000030: 1d15 503f a55c 15be 3022 f03d 265e 523d
00000040: ea64 8d3c beaa 7f3e 1fb3 9e3e 5626 66be
00000050: abb0 8e3d cf81 aebd 7234 943d d355 6abc
00000060: 19ce 4ebe 3213 133d f3d5 12be 70eb 9abd
00000070: d495 e13c 0f6f 0dbe 0feb 89bd 5f91 54be
00000080: 16af f6bc 74bc 043e 5c75 023f e508 cc3e
00000090: 861a c1be f5c9 a7bd 18cc 023d d576 fc3d
000000a0: 035e 643e 406a 90be 460c 20bd d61f 983b
000000b0: dffb 6ebe fbc8 353f f8ff 0ebe f1d6 26be
000000c0: a6e4 ddbd 5674 7a3e 986e 653e 560d c03d
000000d0: c6e1 f63b 278e 1ebf 7506 09bf c6de c5bb
000000e0: 4e9a 9f3e 9009 f5bd 0b7b 2abe c692 573e
000000f0: 45fc 753f 48a8 ab3e 74f0 e63d ff93 153e
00000100: 9127 91be 8da4 f83d b1dc fdbc cbe1 cabd
00000110: e373 d83c b768 67bd fdac fb3e 7eb6 99be
00000120: 42e1 53be 7302 d73d d1e8 39bf a44e 9b3d
00000130: b3d3 13be ceab 55be cb25 903c ff82 1c3e
00000140: 2dda 483d 1da4 eebe 6f6e ba3e 985f 113e
00000150: 52e5 d8bd 6b85 0d3e 958c 89be 6fc4 073d
00000160: 776f 183f 3dcb 523d 3a98 62bd 5fc1 8ebe
00000170: 779a 25be c25b 7abe 41a8 953e e057 a2bf
00000180: b2ed b7be e7ee 64bd 0e16 e93d 9972 eebc
00000190: 7b54 ecbc 9519 edbd d939 c63d 8768 e2bd
000001a0: 2981 9ebc 038e 4b3e 4db3 103e 10b0 033d
000001b0: b40d a2bd 1c11 613e 8a86 c63d 2a16 663e
000001c0: dc58 d4bc 2bd8 76bd 20d8 bcbc 70f7 bdbd
000001d0: 652a 1cbd 6a4a 85bd 9d6b 4bbd c103 7f3d
000001e0: 3060 b7bd 8a22 52be 4332 cb3d 7677 7a3e
000001f0: ecae f23d 51d9 ec3c 0e4d 803d 0bc4 8cbd
00000200: 777a a03e 7fc6 173d 73ff fbbd add4 5cbd
00000210: c2e2 2cbd da00 183d fda5 ca3d 404e 143e
00000220: d1f8 e03e 6bbd c13e 49bf a1bd d1aa bcbd
00000230: 6755 a8bd f3d5 17be 89ee 07be a54b 1b3e
00000240: 6983 493c be35 18bd 4dbc ebbb 3119 673e
00000250: 741c 8f3e bb93 b93d 8b9e dd3d 2437 b1be
00000260: 7c2f b4bb ab4e 51bf ed6b 10bf 84fd 33bf
00000270: fa5c 7dbb 7d79 20bc 13c1 1bbf df25 a0be
00000280: 1e22 2bbf c87c c83d 5663 b73f cb4a 33bf
00000290: 5dda 62be 2283 0a3f 96f5 453e 2c30 b9bd
000002a0: c90a 263f 39b9 4ebf 9c51 3ebc edce 80bf
000002b0: 1db8 913e f655 cabe 4e45 9e3f 0584 163f
000002c0: 144e 90be 4a57 8d3c 3149 1a3f b3c3 6cbe
000002d0: cf03 873d ad4a abbc f3a7 a33e 76e8 433f
000002e0: 65d4 703e d25d 163e 2c65 273f 0649 97be
000002f0: 5461 a0bc f1fd be3d f7f8 193f 64f9 13be
00000300: 2b6c ac3e f861 883e 3c08 003e 2c6a 933f
00000310: c93f babd f348 0ebf 0cc9 dcbe a7a8 103f
00000320: 5c3f 7fbe b50e 4abe b6c4 e33d 04b1 15be
00000330: 5d52 ccbe aed0 bfbd 2d6b 773d f078 92be
00000340: ee94 31bd e72c 143f eae4 463e 2788 8e3e
00000350: da8f c23e 5f02 503e 6473 313e 2eb7 06bd
00000360: 908b 0c3e 741a 053e bf71 033e 0961 eebe
00000370: d889 adbe aece 01bf 77ef 0d3e 1a4a 803d
00000380: 9e6b 34bf fc4f 853e 003b c1be a3c1 4bbe
00000390: 61f0 133e 56ad c93d ef65 b03e 5065 2ebf
000003a0: 46c3 a03e 9a13 b33e d70a b6bd 6061 0fbf
000003b0: b33d adbe b0f5 903e 6570 103f afdc ddbd
000003c0: ed9d 593e 7047 f8be b6ce 85bd cba4 483e
000003d0: 75e3 04bf 3256 5dbe dfb6 26bf 7b00 8dbd
000003e0: 1d3f 7e3d d0c0 f83d 6c21 80be b769 c3bd
000003f0: 6090 f2bc e446 61bd 07d9 98be 93d0 94bd
0.07168464 -0.14614119 0.008493581 0.017568538 0.01745893 -0.08968275 -0.023711864 -0.100036494
-0.18295632 0.119667046 -0.82210255 0.13552457 0.81282216 -0.14586122 0.11725271 0.05135932
0.017260034 0.24967477 0.30996034 -0.22475561 0.069672905 -0.08520853 0.07236566 -0.014302689
-0.20195808 0.035906978 -0.14339428 -0.075644374 0.027537264 -0.13811897 -0.06734287 -0.2075858
-0.030112784 0.12962514 0.50960326 0.39850536 -0.37715548 -0.08192817 0.03193292 0.12327353
0.22301488 -0.28206062 -0.039074205 0.004642467 -0.23338269 0.71009797 -0.13964832 -0.16292931
-0.10834627 0.24458441 0.2240547 0.09377544 0.0075342385 -0.6193566 -0.5352548 -0.0060385196
0.31172413 -0.119647145 -0.166485 0.21052083 0.9608806 0.33526826 0.112763315 0.14607237
-0.283505 0.121407606 -0.030989023 -0.09906348 0.026422447 -0.05649635 0.49155417 -0.30022043
-0.20691398 0.10498514 -0.72620875 0.07583359 -0.14436226 -0.2086632 0.017596146 0.15284346
0.049036194 -0.46609583 0.3641238 0.14196622 -0.105906144 0.13820426 -0.26865068 0.033146318
0.5954508 0.051463354 -0.055320956 -0.27881905 -0.16172205 -0.24449065 0.2922993 -1.2683067
-0.35923535 -0.055891898 0.1138116 -0.029107379 -0.028848877 -0.11577145 0.09679002 -0.11055093
-0.019348698 0.19878392 0.14130898 0.03215033 -0.0791277 0.21979183 0.0969363 0.22469392
-0.025921278 -0.060264748 -0.023052275 -0.092757106 -0.038126368 -0.06508334 -0.049663175 0.06225944
-0.08953893 -0.20520988 0.09921696 0.24459633 0.1184977 0.028912218 0.06264697 -0.0687333
0.31343433 0.037054535 -0.123045824 -0.05391376 -0.04220844 0.037110187 0.09894941 0.14482975
0.43939832 0.37839827 -0.07897813 -0.09212268 -0.08219414 -0.14827709 -0.13274588 0.15165575
0.012299397 -0.037160628 -0.007194078 0.22568204 0.27951396 0.090613805 0.10821255 -0.3461238
-0.0054988246 -0.8176066 -0.5641468 -0.7030871 -0.0038660155 -0.00979459 -0.6084148 -0.31278893
-0.66848934 0.09789425 1.432719 -0.70036 -0.22153611 0.5410634 0.19331965 -0.09042391
0.64860207 -0.8075138 -0.011616137 -1.0063149 0.2846078 -0.39518708 1.23649 0.58795196
-0.2818457 0.017253537 0.6026793 -0.23121528 0.06592523 -0.020909632 0.31964073 0.7652658
0.23518522 0.14684227 0.6538875 -0.295479 -0.01957766 0.09325779 0.60145515 -0.14450604
0.33676276 0.26637244 0.12503141 1.1516776 -0.09094197 -0.5558006 -0.43122137 0.56507343
-0.24926513 -0.19732173 0.11121504 -0.14618307 -0.39906588 -0.09365974 0.060404945 -0.28607893
-0.04335492 0.57881016 0.19423261 0.2783825 0.38000375 0.20313405 0.17329174 -0.032889538
0.13725114 0.12998372 0.1283636 -0.46558407 -0.3389423 -0.50705993 0.1386088 0.06264134
-0.7047671 0.26037586 -0.37740326 -0.19898085 0.14447166 0.09847514 0.3445277 -0.6812334
0.31398982 0.34975892 -0.08888786 -0.5600796 -0.33836135 0.28312445 0.564215 -0.10833108
0.2125165 -0.48492002 -0.065335676 0.19594114 -0.5190957 -0.21614912 -0.6512279 -0.06884857
0.06207191 0.12146151 -0.250255 -0.09541648 -0.029609859 -0.054999247 -0.2985308 -0.07266345

lstms.1.lstm.bias_ih_l0 f4 [200]
00000000: 8dc5 dbbe 3f93 c3be a968 7bbf 412b 7cbe
00000010: 1a0f d8be 89fd c13d f87c 30be c45b 2ebe
00000020: 7c62 a7bd dc03 c0be 6056 0ebf 6835 adbe
00000030: 7824 0ebf 3655 c4bd 3856 d8be b0dd dc3d
00000040: 4d7d 6fbf b9bb 87be aba2 a9bd d21f c3be
00000050: e32a 25be c57f 86be b4d7 c4be 010b 273d
00000060: b5ab cebe 1443 82be 4381 f1be e204 80be
00000070: c3b7 513f ef71 223e bec9 b2be 712e 99be
00000080: 6c82 89be 49a8 d3bd 07ee b9bd 5aa0 ffbe
00000090: 3b74 e6be 9af5 923e fd87 28be 1983 dfbd
000000a0: 5b3e 5fbe 5683 8abe 3ff9 11be e293 07bf
000000b0: bcc1 01bf 7f0e 09bf c09e 0abf f404 72be
000000c0: f115 f33c 28ae 9fbe 78ba 33bf c0de 5fbe
000000d0: f25d 16bf 46d7 b0bd acb7 66be 6881 4dbd
000000e0: 76e9 aebd c6d6 7abe c7bf 113d 9a39 34be
000000f0: 814b 29bd 5cce 1cbe e15a b0be 25dd adbe
00000100: f80e 93be 8a52 1dbe a4bd abbe d4f9 09bd
00000110: 225f 53be 8628 a4be f30e 0dbf 5029 00be
00000120: 7753 f6bd d1a2 d2bd 548b 133c 333d 5abe
00000130: 0dd4 68bf 9a82 cfbe d418 66be 73dc 90be
00000140: 3f0e 9bbe 1ee2 243d 95c1 7f3d 137a 84bd
00000150: 2b64 3dbe ae76 dcbe fe12 87be 409b 23be
00000160: ea21 97be 02b9 35bf b3cc f0bd c867 11bd
00000170: 0f8f 30be a146 49be 7dc1 f4be dc06 88bd
00000180: 1d86 0d3e 8954 3ebe f916 5dbe c471 19be
00000190: 2614 bb3d 4e2b c5bd 3419 a93c 9ed1 a53d
000001a0: 381c db3e db5c 353b d872 f8bb 552e 8d3d
000001b0: dec8 2a3e 9579 c6bd e2f8 41be 6671 703b
000001c0: 4e19 45be 438b aebe bd2c 5cbe f492 16bd
000001d0: db9d e5bd 1aa4 36be 8934 343c 6200 12be
000001e0: 1b78 863c 17e8 bf3e 4475 96be dfad 4ebe
000001f0: ee20 ed3d f9c4 50be 9216 29be d00c 4e3e
00000200: 684d 5a3d 7624 86bd 2fc3 d6be 402f b1bd
00000210: a4f3 263e 79c3 85be 5a90 a33e e0fe 9f3e
00000220: c119 8d3d 7848 d73b cd71 f4bd 38ce 15bd
00000230: b97f c8bd a353 e0bd 8fe5 efbd d102 86be
00000240: 0078 053e 35be 513e 00d7 13be 4169 dfbd
00000250: 5b7b acbd 2745 13be 0c39 f9be bb45 b3be
00000260: 5ba6 59bf 5ec7 ec3d a330 0abf 2cb5 95bc
00000270: ae1c 8fbe 90cf 34be 385b 203e 5b95 eabe
00000280: 986e e9be b88b 41be 4aaa b1be b7a4 03be
00000290: 994e aebe 05a7 43be ba37 67bf a1a4 34be
000002a0: c49d 7fbd 6884 a6be 0631 3bbe c8a2 bcbd
000002b0: bb86 1dbe 750b 7fbd 43a1 5cbe d245 b5be
000002c0: 6b29 e1be 4f13 a6be 8a15 043f ceeb 7ebc
000002d0: afa8 95be 0fcb 883b dc08 c0be f298 0dbd
000002e0: cb16 30be 44d9 a5be 31e6 8abe cdde 4f3e
000002f0: 61c6 97be 048d 89be d36f 99bd 02ba 20be
00000300: 0c16 f4bd 654d a6be 86f5 e2be 1b9b d1be
00000310: 48d2 1abf bf53 233e b8a8 573e 054b 70be
-0.42924157 -0.38198277 -0.98206574 -0.24625875 -0.42199022 0.09472186 -0.17235172 -0.17027193
-0.08173081 -0.37502944 -0.5560055 -0.33829808 -0.55524397 -0.09586565 -0.4225328 0.10784471
-0.9355057 -0.2651041 -0.082829796 -0.38110214 -0.16129641 -0.26269355 -0.38445818 0.04078198
-0.40365377 -0.25441802 -0.4716893 -0.25003725 0.81921023 0.15863775 -0.34919542 -0.29918244
-0.26857316 -0.10334832 -0.09078603 -0.49927026 -0.45010552 0.28703004 -0.16458125 -0.10913677
-0.2180113 -0.27053326 -0.14255236 -0.52960026 -0.5068624 -0.53537744 -0.54148483 -0.23634702
0.029673548 -0.31187558 -0.70206404 -0.21862316 -0.587371 -0.0863481 -0.22531003 -0.05017224
-0.08540623 -0.24495992 0.035583284 -0.17600098 -0.04133177 -0.15313095 -0.34444335 -0.33957782
-0.28722358 -0.15363517 -0.33543122 -0.03368552 -0.20641759 -0.32062167 -0.55100936 -0.1251576
-0.120276384 -0.10284961 0.009005386 -0.21312408 -0.90948564 -0.4052933 -0.22470409 -0.2829319
-0.30284306 0.040254705 0.062440474 -0.06468596 -0.18495242 -0.43059295 -0.26381677 -0.15977192
-0.29518062 -0.70985425 -0.11757793 -0.035499364 -0.17242073 -0.19655849 -0.4780387 -0.06641933
0.13820691 -0.18586935 -0.21590795 -0.14984804 0.091347024 -0.096274 0.0206419 0.08096622
0.42794967 0.0027673754 -0.00758205 0.06893603 0.16678187 -0.09691159 -0.18942598 0.0036688684
-0.19247934 -0.34090623 -0.21501441 -0.03676124 -0.11211749 -0.17836037 0.0109988535 -0.14257959
0.016414693 0.37481758 -0.29386342 -0.20183514 0.115785465 -0.20387639 -0.16512516 0.20122075
0.053296477 -0.06549923 -0.41945788 -0.0865159 0.16303879 -0.26125696 0.3194607 0.31249142
0.06889678 0.0065699182 -0.11935768 -0.03657362 -0.09789986 -0.109534524 -0.11713707 -0.26174024
0.13034058 0.20482714 -0.14437485 -0.109087475 -0.08421966 -0.14381848 -0.48676336 -0.35014138
-0.85019463 0.11561464 -0.53980464 -0.018274866 -0.27951568 -0.17657304 0.15659797 -0.45817074
-0.4559219 -0.18900955 -0.34700233 -0.12855802 -0.3404434 -0.19106682 -0.90319407 -0.17640926
-0.062406316 -0.32522893 -0.1828042 -0.092107356 -0.15383427 -0.062266786 -0.21545891 -0.3540483
-0.43976912 -0.32436606 0.51595366 -0.01555915 -0.29230258 0.004174597 -0.3750676 -0.03456969
-0.17196195 -0.32392323 -0.27128747 0.20299836 -0.2964354 -0.268654 -0.07492032 -0.15695956
-0.119182676 -0.32480922 -0.44327945 -0.4093865 -0.60477114 0.15949915 0.21060455 -0.23466118

lstms.1.lstm.bias_hh_l0 f4 [200]
00000000: c2ee ebbe 31ae cbbe c83d 81bf 96a8 08be
00000010: f69e b9be 32fe e9bb 9a47 62bd 412f 94be
00000020: 2512 28be 74ff dbbe 9817 02bf e08c 99be
00000030: a037 14bf 8a78 5dbe a68d bebe 38d6 083e
00000040: fbc6 7fbf e603 17bd 3b83 7e3d b2be dbbe
00000050: 6ef4 cabe 7b2c abbe fed0 f0be 454c a33d
00000060: fb9d 9abe de70 a6be e10e 86be 1cf6 dabc
00000070: b1b5 713f d5ec 13bd 6c67 a3be 935c 3fbe
00000080: dff1 44be f6b7 04bd f9d6 7ebe 1a68 bcbe
00000090: e797 84be f4bc 353e b3fb 8ebe 55dc 97bd
000000a0: 396b bbbc ac63 b7bd b91d bebd fe0e 01bf
000000b0: 9494 d2be 9306 3ebf f4fa b9be e325 f6bd
000000c0: cf3e 0f3e c039 9abd f266 2fbf ce8c 79bd
000000d0: 95bd aebe 5813 11be d20f 5fbe fa21 43bd
000000e0: adc0 69be 88f4 46be 8b15 afbc 4cea 56be
000000f0: 56be 5fbe debb 1dbe 0b51 d3be 65e1 abbe
00000100: 9709 9fbd d514 f8bd 46db aabe ab05 9cbd
00000110: c247 b5be 5ab0 a3be fbcb 13bf 55c3 a2bd
00000120: 3d6e 1bbd c6cd 0ebe 3309 4bbe 64c2 b7bd
00000130: fd33 76bf 76c0 d5be e3f9 053c 5186 a2be
00000140: 5bda b7be 9882 55bd 4b21 85bc fdab 823c
00000150: e2f7 97be 776a 64be c74f 12be 378a 8bbd
00000160: 7601 f7bd 4a85 24bf 10af 043d 9e2f 05be
00000170: 04fe a4bd 31ad ef3c 56d0 11bf 07d3 71bd
00000180: 9281 863d c03a afbc e2e5 80bd 0ff7 f6bd
00000190: a4e6 613e 24bf f7bd f3fa dcbd 926f acbd
000001a0: 24af 833e eb1e b5bc 0078 5f3e d179 543e
000001b0: 43e4 d73c 662f 15be 8c2b 83be bdbc 9d3d
000001c0: 1d83 d6bd c6c4 0bbf 4666 adbe 1255 643d
000001d0: 1690 04bd 6a21 87be 3768 cf3d 249d 88bc
000001e0: 1841 ccbc f23f 693e f08c 07be 789f 97be
000001f0: 1043 d33d 58b9 fcbd c80f 16be 7c37 673e
00000200: a0a2 1d3c d09c ca3d 4e85 54be 085f d9bc
00000210: d6bb 0c3e af9f 5fbe 7d1a 3d3e 3dff d43d
00000220: 577b fd3d 80ad 16be 73fe 8bbe 9cbd 383d
00000230: bd03 a3bc 607e 0ebe 199d 363c 4898 48be
00000240: dcbf 26bd 2d15 823e c40e 68bd b62a 97bc
00000250: abb1 71be ad75 44be 1fe6 efbe 47ba a9be
00000260: 33a1 64bf 8c3a e6bd 95ef d6be 362d adbb
00000270: 7da3 f0bd 07cd b7bd f0f8 b03d 997d bcbe
00000280: aa1d 19bf 0892 27be 26e7 d9be 1d95 6cbc
00000290: 9740 84be c7aa 7cbe 2c66 6dbf a27c a4bd
000002a0: 97d9 343d b400 c2be c87f 82be 5a95 8cbe
000002b0: 4757 33be c08e 963d c7c3 70be fba4 42be
000002c0: 7107 f5be d964 7cbe c734 fb3e f663 19be
000002d0: 1c66 76be d042 80bd b8b9 c2be aa26 e8bb
000002e0: e9f8 9ebe c29e a2be 4ca6 52bc c2df b43d
000002f0: 7f99 90be f065 ccbd 3194 b4bd 2049 91bd
00000300: 2653 ecbd 5fb9 b8be ef11 03bf 795d d3be
00000310: 367a 12bf 05dd 073e b84b 1c3e e0b0 cbbd
-0.46080595 -0.39781335 -1.0096979 -0.1334556 -0.3625409 -0.007140898 -0.055244066 -0.28942302
-0.16413172 -0.42968333 -0.5081725 -0.29990292 -0.57897377 -0.21628013 -0.37217444 0.13362968
-0.99912995 -0.036868952 0.06213687 -0.42918926 -0.3963961 -0.33432373 -0.47034448 0.07973532
-0.30198655 -0.32507986 -0.26183227 -0.026728682 0.94417864 -0.036114533 -0.31914842 -0.18687658
-0.19232891 -0.032402 -0.24886693 -0.36798173 -0.25897142 0.17747861 -0.27926406 -0.07415072
-0.022878276 -0.08954558 -0.09283013 -0.504135 -0.4112898 -0.7422878 -0.36324275 -0.12018945
0.13988803 -0.07530546 -0.6851646 -0.060925297 -0.34129015 -0.14167535 -0.21783379 -0.047639824
-0.22827406 -0.19429219 -0.021372577 -0.20987815 -0.21849951 -0.15403697 -0.41272768 -0.335704
-0.07765501 -0.121133484 -0.33370417 -0.076182686 -0.3540631 -0.31970483 -0.57733124 -0.07947413
-0.03794693 -0.13945684 -0.19827728 -0.08972624 -0.9617308 -0.417484 0.008177253 -0.317431
-0.3590878 -0.052126497 -0.016251227 0.015951151 -0.29681307 -0.22306238 -0.14288245 -0.06813472
-0.120608255 -0.6426588 0.032393515 -0.13006446 -0.08056262 0.029257389 -0.5695852 -0.059039142
0.06567682 -0.021390319 -0.06293847 -0.120588414 0.22060639 -0.12097004 -0.10790052 -0.08419718
0.2571956 -0.02210947 0.2182312 0.20749594 0.02635396 -0.14568862 -0.2561916 0.077020146
-0.104742266 -0.5459713 -0.3386709 0.055745192 -0.032363974 -0.2639268 0.10127299 -0.016676493
-0.024933383 0.227783 -0.13237357 -0.29613853 0.103155255 -0.12340039 -0.14654458 0.2257976
0.009621292 0.09893191 -0.20753977 -0.026534572 0.13743529 -0.21838258 0.18467136 0.10400245
0.12377041 -0.14714622 -0.27342567 0.0451027 -0.019899243 -0.13915396 0.011145853 -0.1958934
-0.040710315 0.2540678 -0.056654707 -0.018452983 -0.23602931 -0.19185515 -0.46855256 -0.3314993
-0.8930847 -0.11241636 -0.41979662 -0.0052849306 -0.11749933 -0.08974653 0.08641231 -0.36814573
-0.5981089 -0.163643 -0.42559165 -0.014439848 -0.25830528 -0.24674521 -0.92734027 -0.08031584
0.044152822 -0.3789116 -0.25488114 -0.27457696 -0.17513762 0.07351446 -0.23512183 -0.19008248
-0.4785724 -0.24647845 0.49063703 -0.14979538 -0.24062389 -0.062627435 -0.38032317 -0.0070846872
-0.31049278 -0.31761748 -0.012857031 0.08831741 -0.28242108 -0.099803805 -0.08817328 -0.070940256
-0.11539297 -0.36078927 -0.5119924 -0.4128225 -0.5721773 0.13267906 0.1526326 -0.099458456

lstms.1.linear.weight f4 [1, 50]
00000000: 4d70 5ebd f5a1 363e fa07 173c 91f0 55be
00000010: 4825 00be 0823 82be 7f18 5fbe cd3a 3fbe
00000020: becb 93be 5291 bfbd 9a51 043e bb74 29be
00000030: e111 9bbd f57b babe daf1 4e3e c08f 673e
00000040: 1b31 4a3b c81b 8e3e 7314 233e eb29 6e3d
00000050: cf17 96be 3230 2bbe 5357 323e f23e 7cbe
00000060: d0d4 f8bd 11d2 4c3e 676c 1c3e 5c11 743e
00000070: 8b36 35bf fa27 6fbe 1999 2e3e a375 593e
00000080: 7ebf 17be 8ca9 6c3e 69c6 b13e 01f1 d0bd
00000090: c91b 4cbe 0779 9ebe 8466 3d3e 69f7 943e
000000a0: be21 883e 9d4e 273e dd78 683e d640 923e
000000b0: 7e33 fcbc a977 05be 4134 a63b e217 a2be
000000c0: 9cc7 8bbe 36f2 7e3e
-0.054306317 0.17835219 0.00921821 -0.2089255 -0.12514222 -0.25417352 -0.21786688 -0.18674774
-0.2886638 -0.093538895 0.12921754 -0.16548435 -0.075717695 -0.36422697 0.20209447 0.2261343
0.0030852023 0.2775557 0.1592577 0.058145445 -0.2931504 -0.16717604 0.17416124 -0.24633387
-0.12149966 0.20002009 0.15275727 0.23834747 -0.7078635 -0.23355094 0.1705059 0.21236281
-0.14819142 0.23111552 0.34721687 -0.10202218 -0.19932474 -0.30951712 0.18496138 0.2909501
0.26588243 0.16338582 0.22702356 0.2856509 -0.030786272 -0.13033928 0.005072147 -0.31658846
-0.27300727 0.24897084

lstms.2.lstm.weight_ih_l0 f4 [200, 1]
00000000: 1ef0 573e 4350 243e 6b5d cabe fd4e c9bd
00000010: cdc0 363e a944 7d3e 1e0b e83c 0daf 9cbe
00000020: 0595 58bd 5dbd 113e 45b1 eb3d 6323 0dbe
00000030: e0e3 dabe daa3 11be 616f 2c3e 7cb8 413e
00000040: d3f0 c8be 1eaa 763e 8392 2b3e a9e2 88be
00000050: e1b0 7dbe f7cc 903e 3951 4b3d 9a2a 3f3e
00000060: 2610 cabc 9f8f 7cbd c509 fd3c c01f 14be
00000070: f0c1 edbc 5285 bbbd 00d6 67bf 3f52 84bf
00000080: ae22 083e 0fcc 853e adb7 7bbe 7253 263e
00000090: cf55 afbe cd06 73bf c126 54bf 1f31 0a3e
000000a0: f5b5 913e 2732 6e3d 3517 42bf 0853 0e3e
000000b0: 2374 c5bd aa9b 843e 5f68 80be 9b4f 55bc
000000c0: 2c0c ccba e9ae 51be afc0 7d3e 582f 25bf
000000d0: f3e8 403b 0011 93bc 87f5 b43d 9c37 723e
000000e0: ed47 753e 5905 8cbf 9048 033e 4ee6 07be
000000f0: 3283 473e 89fe 2cbf 7f08 8bbe 7e24 073e
00000100: e472 8d3e 5f80 163e 6b45 bebe 6083 7f3e
00000110: 97eb 4bbd ebec 6bbe 95b9 60bf 0573 813e
00000120: b49c e8be a698 223d 3a82 3a3e 994d 26be
00000130: 9460 573e 49a0 19be 7967 413e edad fabe
00000140: 4ae5 c6be d193 f0be 8a15 d2be aa69 173e
00000150: 8f84 e7be 7f93 f63d 2b79 a3be 87b4 aebe
00000160: 2584 cebe 7e81 793e 7f7b 9d3c 91d4 eb3d
00000170: 4aed cdbe 5aea 32bf be6f 163e 3819 923e
00000180: 7c3f 23bd 2562 363e fc5a 74be bf74 05bf
00000190: a2e9 713e 6689 3d3e 3e44 89bc fbcc f63c
000001a0: 0f60 3e3e 5d00 923e 987b 0fbe 9202 b8bb
000001b0: 9142 803d ac7d 883e 60f9 413e 13f0 78be
000001c0: 7df5 9ebe 4cce 42be 6d03 f23d 2238 53be
000001d0: 1d50 013e 2809 87be c47a 453e eb3c 643c
000001e0: d6ed 973d 3c03 803e f480 913e 675b 80be
000001f0: 7dcf 84bd b057 4bbd f989 a93d 7a8c d1bc
00000200: c8ab 62bd 2276 1abd b6d9 d03c 223e a2bd
00000210: 169e 8ebe 7db1 64be 8eea f33a 38c7 703e
00000220: dbdb 2b3d 084d 5d3d a163 c63d 7714 233e
00000230: c312 883e 7180 843e 67ef 11bc fc2f 2bbe
00000240: b181 67be db63 833e e420 e5bc 8df9 52be
00000250: 8242 973d 0173 8cbe 52d7 433e c2aa 403e
00000260: c5cc c8be 0e32 bebd 24da 3a3e e094 533e
00000270: 547f 733d 8814 7fbe a024 9abd a243 193e
00000280: 0c56 2a3e 54b3 92be 254b 85be fa8e 04bd
00000290: da22 383e cff1 773e 920f f3be cb2c 843e
000002a0: f3bf f13d f07c dbbe 2fc2 8cbe fed6 623e
000002b0: 728b 853d 5e7e 263e def2 9fbc 43a7 78bd
000002c0: 4133 d03c 7917 25be e814 07bd fda8 afbd
000002d0: 24b6 57bf cc7a 80bf 4c7d 603b 3d63 253e
000002e0: 15aa 73be 7d8b 293e 5bff c5be 679c 3dbf
000002f0: 54c6 77bf 2417 473e 7142 6a3e 3f4b 0f3e
00000300: 30e9 42bf bb2c 253e 927e c63c 5756 8a3e
00000310: 10cc 70be a1fb bb3d 4adf 583c d793 2fbe
0.21087691 0.16046242 -0.39524397 -0.09829519 0.17846985 0.24733223 0.028325614 -0.30602303
-0.05287649 0.14232393 0.11508421 -0.1378303 -0.4275198 -0.1422266 0.16839363 0.18918031
-0.39246234 0.24088332 0.16755109 -0.26735428 -0.24774505 0.28281376 0.049638007 0.18668595
-0.024665903 -0.061660405 0.030888448 -0.14465237 -0.02902314 -0.09156288 -0.90560913 -1.03376
0.13294479 0.26132247 -0.24581786 0.1624277 -0.34245154 -0.9493225 -0.82871634 0.134953
0.28459135 0.058153298 -0.7581666 0.13898861 -0.09641292 0.25900012 -0.2507963 -0.013019468
-0.0015567592 -0.20476879 0.24780534 -0.64525366 0.0029435724 -0.017952442 0.08835893 0.23654026
0.23953219 -1.0939132 0.12820649 -0.13271448 0.19483641 -0.6757589 -0.2715492 0.13197514
0.27626717 0.14697407 -0.37162337 0.2495246 -0.049785223 -0.23039596 -0.87783176 0.25283065
-0.45432055 0.03969636 0.1821374 -0.16240539 0.21032935 -0.1500255 0.18887128 -0.4896082
-0.3884681 -0.46987775 -0.41032058 0.14786401 -0.45218322 0.120398514 -0.3192838 -0.34122106
-0.40335193 0.24365804 0.019223927 0.11515153 -0.402201 -0.6988884 0.14691064 0.28534865
-0.039855465 0.17810877 -0.23862833 -0.52131265 0.2362428 0.18509445 -0.016756173 0.03012704
0.18591331 0.28515902 -0.14011991 -0.005615541 0.062626965 0.2665838 0.18942785 -0.24310331
-0.31046668 -0.19024009 0.1181706 -0.20626882 0.12628217 -0.26374173 0.19285113 0.01393054
0.074184105 0.25002468 0.28418696 -0.25069734 -0.06484888 -0.049644172 0.08278269 -0.02557968
-0.055339605 -0.037710316 0.025494438 -0.07922007 -0.27854985 -0.22333331 0.0018609331 0.23513496
0.041957717 0.05402854 0.096869715 0.15925775 0.26576814 0.25879243 -0.008907176 -0.16717523
-0.22608067 0.2566212 -0.027969785 -0.20603009 0.07385732 -0.2743149 0.19125107 0.18815139
-0.39218727 -0.09286891 0.18247277 0.2066226 0.0594476 -0.24910176 -0.07526517 0.14967206
0.16634387 -0.28652442 -0.26033893 -0.032362916 0.17982045 0.24213336 -0.47472817 0.25815424
0.118041895 -0.42868757 -0.274919 0.22152326 0.06520738 0.16259143 -0.019524988 -0.06070639
0.025415065 -0.16122235 -0.032978922 -0.08577154 -0.842623 -1.0037475 0.003425437 0.16151138
-0.2379535 0.16557117 -0.38671383 -0.74066776 -0.96787 0.19442421 0.22876908 0.13993548
-0.76137066 0.16130345 0.024230275 0.27018997 -0.23515344 0.09178854 0.01323683 -0.1714624
