saved_models/StackedLSTM_NVDA.pt (torch, 210510 bytes, 13 tensors)

lstm1.weight_ih_l0 f4 [200, 1]
0	0x3e3fb4ba	0.18721285
1	0xbc539e23	-0.012916121
2	0x3decd7ab	0.11564573
3	0x3db49b91	0.088187344
4	0x3e337857	0.17526375
5	0x3d8e2e30	0.06942403
6	0x3dcf0dab	0.10110029
7	0xbd129f13	-0.035796236
8	0x3db40efa	0.08791919
9	0xbdecee5a	-0.115688995
10	0xbe51079b	-0.20413058
11	0xbe5d82d7	-0.21631943
12	0x3df26560	0.11835742
13	0xbe8f80ae	-0.28027862
14	0x3df92af3	0.12166395
15	0x3e4f5e3b	0.2025079
16	0x3e1f32b8	0.15546691
17	0xbe61b191	-0.22040392
18	0x3e2d420f	0.1691973
19	0xbe7fb493	-0.24971227
20	0x3e60c708	0.21950924
21	0x3ea53db8	0.3227365
22	0x3e2d61d8	0.16931856
23	0xbdcb5045	-0.099274196
24	0x3e4a3d8c	0.19750041
25	0xbe1df4b6	-0.15425381
26	0xbea0c28b	-0.31398425
27	0x3e59566e	0.21224377
28	0x3e79c48e	0.24391386
29	0x3d0de106	0.034638427
30	0x3e1506f6	0.14553437
31	0xbd585854	-0.05281861
32	0xbded39e3	-0.11583307
33	0x3e6e883e	0.2329416
34	0x3da9ec91	0.082970746
35	0xbd19bceb	-0.03753368
36	0x3e80f046	0.25183314
37	0x3d5922f0	0.053011835
38	0x3e23ccd1	0.159961
39	0x3e6e385c	0.23263687
40	0x3d73672c	0.059424564
41	0xbe4a3257	-0.19745766
42	0x3e9e8722	0.30962473
43	0x3df78520	0.120859385
44	0xbd387051	-0.04502899
45	0x3e05d89e	0.13070914
46	0xbe0c7dc1	-0.13719846
47	0x3e736161	0.23767616
48	0xbdc783d9	-0.09741945
49	0xbeb9b432	-0.3627029
50	0x3e152967	0.14566575
51	0xbe701ac6	-0.23447713
52	0x3e5bd69c	0.21468586
53	0xbf009d04	-0.50239587
54	0xbc2d4e24	-0.010577712
55	0xbe90c3e0	-0.2827444
56	0x3db73b5d	0.089468695
57	0xbef7ff84	-0.4843713
58	0x3de61516	0.112344906
59	0xbe95241f	-0.2912912
60	0xbe571ee9	-0.21007885
61	0xbe93e1a9	-0.28883103
62	0x3dcf0a6c	0.1010941
63	0xbe45fcf7	-0.1933478
64	0x3def5974	0.11686984
65	0xbdeb1563	-0.114786886
66	0x3e613597	0.21993099
67	0xbe2b2f3b	-0.16717236
68	0x3e2db1ed	0.16962405
69	0xbe876833	-0.26446685
70	0x3c0aa6f9	0.008462661
71	0x3eb22350	0.34792566
72	0xbcd5aba1	-0.026082816
73	0xbea258c6	-0.31708354
74	0x3d5c5a08	0.053796798
75	0xbd8a7d64	-0.067621976
76	0x3c96f6b3	0.018428182
77	0xbe9a25a9	-0.30106857
78	0x3dca3b97	0.09874647
79	0x3e3fe719	0.187405
80	0x3dc88889	0.09791667
81	0xbdf854db	-0.1212556
82	0xbdb2ccc5	-0.08730463
83	0x3e196cac	0.14982861
84	0xbd068084	-0.032837406
85	0xbe9e1df9	-0.30882242
86	0x3d89c6cc	0.067273706
87	0xbe93689a	-0.28790742
88	0x3e1cdc64	0.15318447
89	0xbf40c3fc	-0.7529905
90	0xbe5b6842	-0.2142649
91	0xbf378dc6	-0.71700704
92	0xbec8b9b6	-0.39204186
93	0x3e0247bb	0.12722676
94	0x3dfa3c48	0.12218529
95	0xbe31de76	-0.17370018
96	0xbf0e28bb	-0.555309
97	0x3e1f2245	0.15540417
98	0x3e4841fd	0.19556423
99	0xbe8765f2	-0.26444966
100	0x3e405b0f	0.18784736
101	0xbbfbc464	-0.0076833237
102	0xbe54e1ac	-0.20789212
103	0xbce75c40	-0.02824223
104	0xbe20cb5a	-0.15702572
105	0x3e8934eb	0.26798186
106	0x3e13563a	0.14388362
107	0xbeb256b8	-0.34831786
108	0xbe2da0de	-0.16955897
109	0x3d874e84	0.066067725
110	0xbea53f55	-0.3227488
111	0xbdba74b5	-0.09104291
112	0xbde49197	-0.111605816
113	0x3cb1f46a	0.021722991
114	0xbe5245d0	-0.20534444
115	0x3e036141	0.12830068
116	0xbe372312	-0.17884472
117	0xbc39006e	-0.011291606
118	0x3e24bb76	0.16087136
119	0xbda3ca4d	-0.0799757
120	0xbe0f80f5	-0.14014037
121	0x3e66de25	0.22545679
122	0xbe048fa1	-0.12945415
123	0xbe4aaca0	-0.19792414
124	0xbe0ef893	-0.13962011
125	0x3b1e9b87	0.0024201588
126	0xbd56a3dc	-0.052402362
127	0xbe3b6f97	-0.18304287
128	0x3e0f3c77	0.1398791
129	0xbe390e28	-0.18071806
130	0xbe121ec7	-0.14269553
131	0x3e5b0b02	0.21390918
132	0x3cc541b8	0.024079189
133	0xbe19f64e	-0.15035364
134	0x3e12d4bc	0.14338964
135	0x3eb2e893	0.34943065
136	0x3e0f83e8	0.14015162
137	0xbecffe83	-0.40623865
138	0x3e2219fa	0.15830222
139	0x3ea2e35f	0.31814095
140	0x3d11ced0	0.035597622
141	0x3c39d771	0.011342869
142	0x3e351a1d	0.17685743
143	0xbe156fe0	-0.14593458
144	0x3e2ccf00	0.16875839
145	0x3e80c5c9	0.25150898
146	0xbdb5bb6b	-0.08873638
147	0x3e1824b3	0.1485775
148	0xbca69834	-0.020336248
149	0xbdbbe853	-0.09175172
150	0x3e74f7da	0.23922673
151	0x3e429ad9	0.19004382
152	0x3e526298	0.20545423
153	0x3ca38cd4	0.019964613
154	0x3e66221f	0.22473954
155	0xbe49fcfc	-0.19725412
156	0x3e1f5c28	0.15562499
157	0xbe6bdd90	-0.23033738
158	0x3e2843d6	0.16432127
159	0xbdd686b7	-0.104749136
160	0xbe582d58	-0.21111047
161	0xbea36edb	-0.31920514
162	0x3e176a3d	0.1478662
163	0xbe3b7505	-0.18306358
164	0x3e799bb7	0.24375807
165	0x3e71ead6	0.23624739
166	0x3e908893	0.28229198
167	0xbe7cf5c8	-0.24703133
168	0x3e717b26	0.23582134
169	0xbeb2c7c7	-0.34918043
170	0xbda7edad	-0.0819963
171	0xbe0dfbde	-0.13865611
172	0x3e471141	0.19440176
173	0xbe5941e9	-0.21216549
174	0x3e8948ae	0.26813263
175	0xbe4baaa2	-0.1988931
176	0xbe655622	-0.22396138
177	0x3e84468a	0.25835067
178	0x3e9347e7	0.28765795
179	0x3e0dd7f5	0.13851912
180	0x3e30787d	0.17233463
181	0x3dfa2b0e	0.12215243
182	0x3cc0e0fe	0.023544785
183	0x3e93596e	0.28779167
184	0x3e004927	0.12527905
185	0xbdf6239d	-0.120185114
186	0x3e8e2f28	0.27770352
187	0xbe19b508	-0.15010464
188	0x3e7cb250	0.24677396
189	0xbde035a3	-0.109477304
190	0x3e1c4e3f	0.15264224
191	0xbe47821d	-0.19483228
192	0x3eae940a	0.3409732
193	0x3e69fa8c	0.22849482
194	0x3e0e511d	0.1389813
195	0x3e217bb4	0.15769845
196	0xbe0233e2	-0.12715104
197	0x3e95cdc4	0.2925855
198	0x3df7b56c	0.1209515
199	0xbe5471d5	-0.20746548

lstm1.weight_hh_l0 f4 [200, 50]
0	0x3e027b18	0.12742269
1	0x3f04813c	0.51759696
2	0x3be990a1	0.007127837
3	0x3d776afa	0.060404755
4	0xbe15a054	-0.14611942
5	0xbe215512	-0.15755108
6	0xbd34aef1	-0.04411215
7	0xbe52e69c	-0.20595783
8	0x3c79b40b	0.0152406795
9	0x3e9f629a	0.31129915
10	0x3e34c3ae	0.17652771
11	0x3e2469ed	0.16056032
12	0xbdc36055	-0.09539858
13	0xbefeb2e1	-0.4974585
14	0x3d42b98f	0.047540244
15	0x3ec40edc	0.38292587
16	0xbe3c6d1a	-0.18400994
17	0xbdf5f946	-0.12010436
18	0xbd32681a	-0.04355631
19	0x3dfbb347	0.12290054
20	0xbedccfe7	-0.43127367
21	0x3cec00cd	0.028808976
22	0x3cf52056	0.029922646
23	0xbd81e689	-0.06342799
24	0xbda29250	-0.07938063
25	0x3e505edc	0.20348686
26	0x3d2d848c	0.042362735
27	0xbd405fc4	-0.04696633
28	0x3d1f2561	0.038854007
29	0xbdbdd79f	-0.09269642
30	0xbe4a99ca	-0.19785228
31	0x3e35e393	0.17762594
32	0xbe8c099a	-0.27351075
33	0xbdd879dd	-0.105701186
34	0x3e11d61d	0.14241834
35	0xbdae231d	-0.08502791
36	0x3ba2eb5e	0.0049719056
37	0x3b35a056	0.0027713976
38	0x3d69f9a1	0.05712283
39	0xbdd8db3a	-0.10588689
40	0x3e81af4f	0.25329062
41	0x3e1460dd	0.14490075
42	0x3e6f467d	0.23366733
43	0xbc8f21eb	-0.017472228
44	0xbcc53090	-0.024071008
45	0x3b02d841	0.0019965323
46	0x3d3fa45b	0.0467876
47	0xbcdb9e4d	-0.026808882
48	0x3cee28ec	0.029072247
49	0x3db090ae	0.086213455
50	0xbeef740f	-0.46768233
51	0xbd8f7317	-0.070043735
52	0x3c013a76	0.007887473
53	0xbf3cb6c0	-0.73716354
54	0x3eac5e4f	0.33665702
55	0x3e1ff334	0.15620118
56	0xbf1d79eb	-0.6151416
57	0xbf33d706	-0.70249975
58	0x3ed97a10	0.4247594
59	0xbea20faf	-0.3165259
60	0xbe80ef2b	-0.2518247
61	0x3e772140	0.24133778
62	0x3f90afa3	1.13036
63	0x3ef00e84	0.46886075
64	0x3c10fb60	0.008848995
65	0xbf7da647	-0.99081844
66	0xbdbf3d4d	-0.09337864
67	0xbf73e82f	-0.9527616
68	0xbf0f3f79	-0.55956227
69	0x3e09b4f9	0.13447942
70	0x3f81f0a9	1.0151569
71	0x3eb20ea1	0.34776786
72	0x3f19a936	0.6002382
73	0x3cb7a921	0.022419514
74	0x3f5a9b5c	0.8539331
75	0xbead0b43	-0.33797655
76	0xbdb6efa8	-0.089324296
77	0x3f1ffca1	0.62494856
78	0xbf5a452c	-0.852618
79	0x3ee28526	0.4424221
80	0x3f9b33ad	1.2125145
81	0xbd398a83	-0.04529811
82	0x3f823a3e	1.0174024
83	0x3f767873	0.9627754
84	0x3e8d3744	0.27581227
85	0x3ec45e99	0.38353422
86	0xbf8a81dd	-1.0820881
87	0xbea768a7	-0.3269703
88	0x3d304647	0.04303577
89	0x3feddc16	1.858279
90	0x3f805130	1.0024776
91	0x3f02bf34	0.51073
92	0xbe618e7f	-0.22027014
93	0x3f9588e9	1.1682407
94	0xbe838eb8	-0.25694823
95	0x3f94fc72	1.163954
96	0x3ea61e27	0.3244488
97	0xbf889a5a	-1.0672104
98	0xbecae2d5	-0.39626184
99	0x3e2e0ea9	0.1699778
100	0x3c589919	0.013220095
101	0x3f0980bc	0.5371206
102	0xbe18d902	-0.14926532
103	0x3ed12d36	0.40854806
104	0xbe17e7d8	-0.14834535
105	0x3b4619ef	0.003022786
106	0x3c6d2ea2	0.01447645
107	0xbf46d152	-0.7766315
108	0xbe14b0ed	-0.14520617
109	0x3e626284	0.22107893
110	0x3dde336d	0.108496524
111	0xbe3e0dfe	-0.18560025
112	0xbdfd563a	-0.12369962
113	0x3dd9fb19	0.10643596
114	0xbe7efed7	-0.24901901
115	0x3f1e0b2f	0.61735815
116	0xbe62a821	-0.22134449
117	0x3db69137	0.08914416
118	0x3cce7205	0.025200853
119	0x3d97a53f	0.07404565
120	0xbea1c83c	-0.3159808
121	0x3c142537	0.009042076
122	0xbdfeb5c1	-0.124370106
123	0x3d9ae05d	0.07562325
124	0xbe4164b5	-0.18886073
125	0x3dcead3b	0.10091635
126	0xbda0b1e9	-0.07846434
127	0xbd06dc79	-0.032925103
128	0x3dfe4565	0.1241558
129	0xbe4acab3	-0.19803886
130	0xbd4bec53	-0.049785923
131	0x3e2e6afa	0.17032996
132	0x3d2f7310	0.04283434
133	0xbde70f28	-0.11282188
134	0x3d9e3220	0.07724404
135	0xbd970749	-0.073744364
136	0x3e8625ed	0.2620081
137	0x3cd41d8f	0.025893
138	0xbc9a3ba4	-0.018827267
139	0xbeb99214	-0.3624426
140	0x3e9d43ff	0.3071594
141	0xbd92961b	-0.071575366
142	0x3dfd2469	0.1236046
143	0xbe63c614	-0.2224353
144	0x3e17edf5	0.14836867
145	0x3e792f08	0.24334347
146	0xbe8209a5	-0.25397983
147	0x3d3ff5e5	0.046865363
148	0xbdfa59c9	-0.122241564
149	0x3d00a5d0	0.03140813
150	0x3eb7cbbc	0.35897624
151	0x3fb2fd14	1.3983483
152	0xbe976cb6	-0.29575127
153	0x3f329631	0.69760424
154	0x3cb1bf6e	0.021697726
155	0x3edf6b14	0.43636382
156	0x3eff8fab	0.49914297
157	0xbf831b6c	-1.0242743
158	0xbead106c	-0.3380159
159	0xbf156968	-0.5836396
160	0xbebe5bb0	-0.37179327
161	0xbf151686	-0.58237493
162	0xbe027a82	-0.12742046
163	0xbf01ebd4	-0.5075047
164	0xbd7384b6	-0.059452735
165	0xbebbdd4a	-0.36692268
166	0xbea314ff	-0.31851956
167	0x3ec25128	0.37952542
168	0x3ea6e424	0.32595932
169	0xbe99f178	-0.3006704
170	0x3cf12402	0.029436115
171	0x3eae295f	0.3401594
172	0x3b885344	0.0041603167
173	0xbe50021f	-0.20313309
174	0xbeaba771	-0.33526185
175	0x3f15e23d	0.5854834
176	0xbcd556a2	-0.026042286
177	0x3eb42c1c	0.35189903
178	0x3f100813	0.5626232
179	0xbea5a3b3	-0.32351455
180	0xbe45ccdf	-0.19316433
181	0xbf8a1667	-1.0788087
182	0xbf0b71e7	-0.54470676
183	0xbefca149	-0.493418
184	0xbf05c1d9	-0.52248913
185	0xbdcf095d	-0.10109208
186	0x3ebc591c	0.36786735
187	0xbd8495e1	-0.064739
188	0x3f1cede0	0.6130047
189	0xbe107b06	-0.1410943
190	0x4007a1da	2.1192536
191	0x3e05b553	0.13057451
192	0x3dc83e95	0.097775616
193	0x3dd0ce2e	0.10195576
194	0xbe16ba17	-0.14719425
195	0xbf844b1f	-1.0335425
196	0x3f1094ab	0.5647685
197	0x3f06c561	0.52644926
198	0xbf335818	-0.70056295
199	0xbed38a20	-0.4131632
200	0x3e60e827	0.21963559
201	0x3eef4620	0.4673319
202	0xbd267324	-0.04063715
203	0xbe18eebc	-0.1493482
204	0xbe44180b	-0.19149797
205	0x3dae1fa2	0.08502127
206	0x3cc3713e	0.023857709
207	0xbe4ce790	-0.20010209
208	0xbe06b9d4	-0.13156825
209	0x3aad3be2	0.0013216699
210	0x3dca2dea	0.09872039
211	0xbdc4b3f7	-0.09604638
212	0xbdf649fa	-0.12025829
213	0xbde9df0d	-0.11419497
214	0xbe2c5b0f	-0.16831611
215	0x3df6838a	0.12036808
216	0xbd62dc7b	-0.055386048
217	0x3e998206	0.29982013
218	0x3e57e9bf	0.21085261
219	0xbc7af762	-0.01531777
220	0xbe141622	-0.14461568
221	0xbd9e0291	-0.07715333
222	0xbd8e2e51	-0.06942428
223	0xbd8cf002	-0.06881715
224	0xbe607221	-0.21918537
225	0x3cb929db	0.022602966
226	0xbe4b4e57	-0.19854103
227	0xbda0159f	-0.07816624
228	0x3e0ce9bb	0.13761036
229	0xbe7b59a0	-0.24545908
230	0xbda5555d	-0.080729224
231	0xbcdc4e8c	-0.026892923
232	0xbe89d4f4	-0.26920283
233	0xbe6e3be1	-0.2326503
234	0xbd25f010	-0.040512145
235	0xbe86214f	-0.26197287
236	0x3e7964ee	0.24354908
237	0x3e522109	0.20520414
238	0x3e47e43d	0.1952066
239	0x3b148fb9	0.0022668673
240	0x3ee2e07f	0.44311902
241	0x3da71931	0.08159102
242	0x3ea0d434	0.31411898
243	0xbe29d322	-0.16584447
244	0x3dacd521	0.084390886
245	0x3d97c2d5	0.07410208
246	0x3da50ffb	0.08059689
247	0x3e039ce5	0.1285282
248	0xbddd3832	-0.10801734
249	0xbdf8e8c6	-0.12153773
250	0x3e589bf9	0.21153249
251	0x3d83a1c7	0.06427341
252	0xbe1c98f9	-0.1529273
253	0xbd39e1d6	-0.04538139
254	0xbeceb9d8	-0.40376163
255	0x3e1bc676	0.15212426

lstm1.bias_ih_l0 f4 [200]
0	0xbe191b04	-0.14951712
1	0xbd1f1cca	-0.038845815
2	0x3d8a88d8	0.06764382
3	0xbdd79e4c	-0.105282396
4	0xbeada275	-0.33913007
5	0x3e83e532	0.257608
6	0xbe20aabc	-0.1569013
7	0x3deac5f9	0.114635415
8	0x3d0c0f1e	0.034194104
9	0xbf117a59	-0.5682731
10	0x3cae903d	0.021309013
11	0xbda8220e	-0.082096204
12	0xbe9be37a	-0.30446988
13	0xbe4249b6	-0.18973431
14	0x3aa2e341	0.0012427346
15	0xbe8a2374	-0.26980174
16	0xbe79933e	-0.24372575
17	0xbefc67e1	-0.49298003
18	0xbe98b5f6	-0.29826325
19	0x3d6ed71e	0.05831062
20	0xbe1d200f	-0.1534426
21	0x3d9639d8	0.073352516
22	0xbe8d464f	-0.27592704
23	0x3dd2f809	0.10301215
24	0xbe87e200	-0.26539612
25	0xbed61d63	-0.41819295
26	0xbf28dbc8	-0.6596036
27	0x3cbe3f2b	0.02322348
28	0xbdb094db	-0.08622142
29	0x3c3e4755	0.011613687
30	0xbd9e9d3a	-0.07744832
31	0xbe0d742c	-0.13813847
32	0xbe9f9e0d	-0.3117527
33	0x3cc56d6a	0.024100024
34	0xbe69aba1	-0.22819377
35	0x3d0ccb6f	0.034373697
36	0xbec815ba	-0.39079076
37	0x3ea8df5a	0.32982904
38	0x3cbb01b7	0.022827966
39	0xbdeb36b9	-0.11485047
40	0xbe8f0844	-0.27935994
41	0xbf714e04	-0.9425967
42	0xbe877a40	-0.26460457
43	0xbe99546c	-0.2994722
44	0xbe3b95cf	-0.18318866
45	0xbeb640b9	-0.35596254
46	0xbf0a8ad6	-0.54118097
47	0xbe0ee7aa	-0.1395556
48	0xbeb112ee	-0.34584755
49	0x3d15677d	0.036475647
50	0xbe4c0e1f	-0.19927262
51	0xbf150c79	-0.58222157
52	0x3d07b009	0.033126865
53	0xbf0ca0db	-0.54932946
54	0xbd98cb3e	-0.0746064
55	0x3e11e248	0.14246476
56	0xbde75ae2	-0.112966314
57	0xbf2f5110	-0.68483067
58	0xbe6b6caa	-0.22990671
59	0xbecf74ff	-0.40518948
60	0xbe19ef8d	-0.15032788
61	0xbe71a056	-0.2359632
62	0xbef9a90d	-0.48761788
63	0xbe8fc49c	-0.2807969
64	0x3ca90e58	0.020636722
65	0xbeebb821	-0.46038917
66	0xbd90a8bb	-0.07063433
67	0xbed9cc1f	-0.42538545
68	0xbe517c74	-0.20457631
69	0xbf0b71d7	-0.5447058
70	0xbf06f46e	-0.5271672
71	0xbc180162	-0.009277673
72	0xbe12d529	-0.14339127
73	0xbdb5b865	-0.08873061
74	0xbecfd368	-0.40590978
75	0xbf1a7c77	-0.6034617
76	0xbf0885fe	-0.53329456
77	0xbe6e081b	-0.2324528
78	0xbece0414	-0.40237486
79	0xbe18ae27	-0.14910184
80	0xbe5e4b97	-0.21708523
81	0xbe19f3cf	-0.15034412
82	0xbd96ac0f	-0.07357036
83	0xbe4a401d	-0.1975102
84	0xbe95bcd7	-0.29245636
85	0xbdefedde	-0.117152914
86	0xbeb15d48	-0.3464148
87	0xbd2ee004	-0.042694107
88	0xbe5b2d43	-0.21403985
89	0xbf693cdf	-0.91108507
90	0xbe86bcd8	-0.2631595
91	0xbf611824	-0.8792746
92	0xbe8b43f5	-0.27200285
93	0xbee4c6a0	-0.4468279
94	0xbe1a1493	-0.15046911
95	0xbe7ee9d6	-0.24893889
96	0xbf796a8e	-0.97428215
97	0xbdd6bb2d	-0.1048492
98	0xbe89e5df	-0.2693319
99	0xbe903ac2	-0.2816983
100	0xbe43abb1	-0.19108464
101	0x3d7a013e	0.06103634
102	0x3e72dd7e	0.23717305
103	0x3d6cb20c	0.057786986
104	0x3e2d7afc	0.16941446
105	0x3ce96ede	0.028495248
106	0xbe67a12f	-0.2262008
107	0x3e55d033	0.20880203
108	0x3ea25ae8	0.3170998
109	0xbc315f40	-0.010825932
110	0x3d0bfd1d	0.034176935
111	0xbd844e97	-0.06460302
112	0x3e96432d	0.29348126
113	0xbe3027d4	-0.17202693
114	0x3e572963	0.21011882
115	0xbeb0c8cf	-0.34528205
116	0x3d82055c	0.063486785
117	0xbdceb677	-0.10093396
118	0xbe71c31d	-0.23609586
119	0xbde95769	-0.11393625
120	0x3e7d491d	0.24734922
121	0x3df92f1d	0.12167189
122	0x3ebca655	0.3684565
123	0xbd9ae0a2	-0.075623766
124	0x3e8bbaab	0.27290854
125	0x3dac2020	0.08404565
126	0x3a9fd4f5	0.0012194203
127	0x3e765a1a	0.24057809
128	0xbe8ed30a	-0.27895385
129	0x3e53525c	0.20636886
130	0x3e946f3c	0.28991115
131	0xbe8f5b9c	-0.2799958
132	0xbca02bdb	-0.019552162
133	0x3eaecba9	0.34139755
134	0xbe3b22a7	-0.18274938
135	0xbe3058fe	-0.17221448
136	0xbeafdd27	-0.34348413
137	0x3dc4bdf9	0.09606547
138	0xbe277456	-0.16352972
139	0xbe609016	-0.21929964
140	0xbd88063a	-0.066418126
141	0x3d9a4097	0.07531851
142	0xbeaa5923	-0.3327113
143	0x3ecd844c	0.40139997
144	0xbea59e14	-0.32347167
145	0xbebc609f	-0.36792466
146	0x3d9ca3dd	0.07648442
147	0xbe73044d	-0.2373211
148	0x3d793472	0.06084103
149	0xbddfec79	-0.109337755
150	0xbdf1952c	-0.117960304
151	0xbe7b67c6	-0.24551305
152	0x3dbd69a3	0.09248664
153	0x3d012e3e	0.03153824
154	0xbdc18402	-0.094490066
155	0x3d85b638	0.06528896
156	0xbe1f26ac	-0.15542096
157	0xbe0c9102	-0.13727191
158	0x3e00548f	0.12532257
159	0xbebe980d	-0.3722538
160	0x3d712334	0.058871463
161	0x3cf788f2	0.030216668
162	0xbf20535b	-0.6262719
163	0xbe9c9c6f	-0.305881
164	0x3cb644a4	0.022249527
165	0xbee45f67	-0.44604036
166	0xbeb492d5	-0.35268274
167	0xbea99135	-0.33118597
168	0xbe539662	-0.20662835
169	0xbe000679	-0.12502469
170	0xbf02f9a9	-0.511622
171	0x3e48f2fd	0.19623943
172	0xbe9314a2	-0.2872668
173	0xbd46bd41	-0.04852033
174	0xbed203bd	-0.41018477
175	0xbe62ff85	-0.22167785
176	0xbf399c1c	-0.7250383
177	0xbd3f2003	-0.046661388
178	0xbe8abcb9	-0.2709711
179	0xbe1bc187	-0.15210544
180	0x3db04b41	0.086081035
181	0xbe56cdb2	-0.20976904
182	0xbe837fef	-0.25683543
183	0xbe409689	-0.18807425
184	0xbe6eca54	-0.2331937
185	0x3e954c3b	0.29159722
186	0xbdfb7eab	-0.122800194
187	0x3e5c34b1	0.21504475
188	0xbe7ff536	-0.24995884
189	0xbecbc29d	-0.39796916
190	0xbe373681	-0.17891885
191	0xbf581d4d	-0.8441971
192	0xbe8c7e33	-0.27440032
193	0xbe518b6f	-0.20463346
194	0xbe992022	-0.29907328
195	0xbe8cd9f5	-0.27510038
196	0xbef302f2	-0.47463185
197	0xbe852bf3	-0.26010093
198	0xbe33b800	-0.17550659
199	0xbe3d60d7	-0.18493973

lstm1.bias_hh_l0 f4 [200]
0	0xbe7af29c	-0.2450661
1	0xbe037531	-0.12837674
2	0x3d0921da	0.03347955
3	0xbe5c0ee2	-0.21490052
4	0xbd8a85b8	-0.06763786
5	0x3e878b3c	0.26473415
6	0xbd8a5bf7	-0.06755822
7	0x3e843f86	0.25829715
8	0xbdf06351	-0.11737693
9	0xbf0b5913	-0.5443279
10	0x3d4d714a	0.05015687
11	0x3d1fa90e	0.038979582
12	0xbeea039a	-0.45705873
13	0xbe83b3a5	-0.25722995
14	0xbb209d99	-0.0024507998
15	0xbec8a5aa	-0.39188892
16	0xbe7b221a	-0.24524727
17	0xbf055a77	-0.52091163
18	0xbea040d2	-0.31299454
19	0xbd8f28f8	-0.06990236
20	0xbe45c63b	-0.193139
21	0x3d83480a	0.06410225
22	0xbee2355b	-0.44181332
23	0x3c011d04	0.007880453
24	0xbe231818	-0.1592716
25	0xbec1686b	-0.37774977
26	0xbf0fcbf6	-0.56170595
27	0xbd0c796b	-0.03429548
28	0xbd61fb8d	-0.05517154
29	0xbd677dd8	-0.0565165
30	0xbe417e41	-0.18895818
31	0xbeb392b3	-0.3507286
32	0xbe4a7d7f	-0.19774435
33	0xbd437286	-0.04771664
34	0xbec0f600	-0.37687683
35	0x3e5442d8	0.20728624
36	0xbe842cac	-0.25815332
37	0x3e1ba766	0.15200576
38	0xbde5f9eb	-0.11229309
39	0xbdb478e3	-0.0881212
40	0xbef0a06c	-0.46997392
41	0xbf75fd10	-0.9608927
42	0xbe422f08	-0.18963253
43	0xbe959eb2	-0.29222637
44	0xbe66d625	-0.22542627
45	0xbe961cf7	-0.29318973
46	0xbeff3ae3	-0.49849615
47	0xbe56a2d6	-0.20960554
48	0xbeaf2ad2	-0.34212357
49	0x3d664c1b	0.056224924
50	0xbdac184a	-0.0840307
51	0xbec4f5e4	-0.3846885
52	0xbe4a0599	-0.19728698
53	0xbf1196f7	-0.5687098
54	0xbe8717ed	-0.2638544
55	0x3b8bf311	0.004270919
56	0xbad0d32a	-0.0015932072
57	0xbf557204	-0.833771
58	0xbe11108c	-0.14166468
59	0xbf00dbda	-0.50335467
60	0xbdb47a90	-0.088124394
61	0xbe0e7ac0	-0.13914013
62	0xbee7019b	-0.45118412
63	0xbea15a02	-0.31513983
64	0xbc59b259	-0.01328715
65	0xbea86103	-0.32886514
66	0xbe5939b7	-0.21213423
67	0xbf158daa	-0.5841929
68	0xbe7806ae	-0.24221298
69	0xbec638cf	-0.38715217
70	0xbee4a0c9	-0.4465392
71	0x3df08ede	0.11746
72	0xbe7fc4fc	-0.24977487
73	0xbe9c4641	-0.3052235
74	0xbeb33b3c	-0.3500613
75	0xbf0391cf	-0.5139436
76	0xbeeb5a65	-0.45967403
77	0xbe359f35	-0.17736514
78	0xbecf96e2	-0.40544802
79	0xbe135c65	-0.14390714
80	0xbe84577a	-0.2584799
81	0xbe8aeecb	-0.2713531
82	0xbc0df892	-0.008665221
83	0xbe84a74f	-0.25908896
84	0xbea0f413	-0.31436214
85	0xbd219218	-0.039445966
86	0xbe46639c	-0.19373935
87	0x3e4dfbd3	0.20115595
88	0x3c65cac1	0.014025391
89	0xbf56042f	-0.83600134
90	0xbeb9b2d1	-0.3626924
91	0xbf4eefae	-0.8083447
92	0xbebf8753	-0.37407932
93	0xbf15924c	-0.58426356
94	0xbde2ee6e	-0.11080633
95	0xbe10e1e1	-0.14148666
96	0xbf61234e	-0.87944496
97	0xbe025f60	-0.12731695
98	0xbe85e0bd	-0.26148024
99	0xbea6508a	-0.3248332
100	0xbe651597	-0.22371517
101	0x3cb413fc	0.021982186
102	0x3e56d154	0.2097829
103	0x3d5ade84	0.053434864
104	0x3ea993f4	0.33120692
105	0xbd4d45e8	-0.050115496
106	0xbe63bb5d	-0.22239442
107	0x3e4536cd	0.19259186
108	0x3e384b70	0.17997527
109	0xbd367bb8	-0.04455158
110	0x3d6de481	0.058079246
111	0xbe287af7	-0.16453157
112	0x3e6349c0	0.22196102
113	0x3c551e2c	0.013007682
114	0x3e5ca37f	0.21546744
115	0xbe6dd92f	-0.2322738
116	0x3ea3064b	0.3184074
117	0x3dce9c9f	0.10088467
118	0xbe18eb3d	-0.14933486
119	0xbdf9b413	-0.121925496
120	0x3ded2936	0.11580126
121	0xbd69c16d	-0.05706923
122	0x3e228451	0.15870787
123	0x3d52ab4a	0.051432885
124	0x3ea40ff8	0.32043433
125	0xbd01a4d4	-0.031651333
126	0x3e27e9c2	0.16397765
127	0x3eaed8cb	0.34149775
128	0xbebf2980	-0.3733635
129	0x3e8ee5c6	0.27909678
130	0x3e988002	0.29785162
131	0xbe8c9ebc	-0.27464855
132	0xbe13a158	-0.14417017
133	0x3e9ca8fb	0.30597672
134	0xbe6e43bd	-0.23268028
135	0xbd2fe7d1	-0.042945687
136	0xbe6478ec	-0.22311753
137	0x3d44da77	0.048059907
138	0xbe94022e	-0.28907913
139	0xbdbb89ae	-0.0915712
140	0xbe0cf193	-0.13764028
141	0xbe1812c2	-0.14850906
142	0xbea29f1f	-0.31762025
143	0x3e2234ea	0.15840498
144	0xbdf65bd2	-0.12029232
145	0xbeb047a1	-0.3442965
146	0x3bcd282d	0.006260893
147	0xbeb950da	-0.36194497
148	0x3d83eae8	0.06441289
149	0xbe25487f	-0.16140936
150	0xbe4944a1	-0.19655086
151	0xbea618d5	-0.3244082
152	0x3df10cab	0.11769994
153	0xbdeb9d9d	-0.11504672
154	0xbe0abd70	-0.13548827
155	0x3da1e506	0.07905011
156	0xbdcb9e9f	-0.09942364
157	0xbd336c68	-0.043804556
158	0xbde2b500	-0.11069679
159	0xbee06b29	-0.43831757
160	0x3d21b56c	0.039479658
161	0xbdbb023e	-0.09131287
162	0xbefe015b	-0.4961041
163	0xbea52ec5	-0.32262245
164	0x3ca9adca	0.020712752
165	0xbeca9e55	-0.39573923
166	0xbeba6dcd	-0.36411896
167	0xbe9c1e17	-0.30491707
168	0xbeaf2a38	-0.34211898
169	0xbd969d7d	-0.07354257
170	0xbf0550b9	-0.520763
171	0x3e5ffe21	0.21874286
172	0xbe76b5c3	-0.24092774
173	0x3dc2587e	0.09489535
174	0xbee9c311	-0.45656636
175	0xbea2ea2b	-0.3181928
176	0xbf4efb67	-0.8085236
177	0xbdf605f7	-0.120128565
178	0xbea39cd5	-0.3195559
179	0xbd68c1d5	-0.056825478
180	0x3ca5db7d	0.020246262
181	0xbe621b7c	-0.22080797
182	0xbd93124c	-0.07181224
183	0xbe340809	-0.1758119
184	0xbe3b240c	-0.1827547
185	0x3d75cd84	0.060010448
186	0xbe2608b0	-0.16214252
187	0x3d8f58b4	0.06999341
188	0xbd8df748	-0.06931931
189	0xbeb2a7cf	-0.34893653
190	0xbe8c1144	-0.27356923
191	0xbf5f4953	-0.8722126
192	0xbe913709	-0.283623
193	0xbee1b41f	-0.44082734
194	0xbe3b5930	-0.18295741
195	0xbe6eb5f9	-0.23311605
196	0xbec51b06	-0.3849718
197	0xbe8ec2e9	-0.2788308
198	0xbee68c43	-0.45028886
199	0x3bfa54c3	0.007639499

lstm2.weight_ih_l0 f4 [200, 50]
0	0x3af145e4	0.001840767
1	0xbe478801	-0.19485475
2	0xbca42fd3	-0.020042336
3	0xbece61b7	-0.40308926
4	0xbe238fd3	-0.15972833
5	0xbed51ab4	-0.41621935
6	0x3e46106c	0.19342202
7	0x3ed138ba	0.4086359
8	0xb989a26a	-0.00026251684
9	0x3f293ebc	0.6611135
10	0x3ef5069e	0.4785661
11	0x3e9a8cfe	0.30185694
12	0xbdb9fe0a	-0.09081657
13	0x3e961882	0.29315573
14	0x3dbef386	0.09323792
15	0x3e8d07a9	0.27544907
16	0xbe4a7843	-0.19772439
17	0xbecf5b56	-0.4049937
18	0xbd002892	-0.03128869
19	0x3ec1c909	0.3784869
20	0xbdaba236	-0.08380549
21	0xbe7f77fc	-0.24948114
22	0xbe354d9f	-0.17705391
23	0x3e898bf2	0.26864582
24	0xbe2c9b18	-0.16856039
25	0xbf5ca6f3	-0.86192244
26	0x3e400479	0.18751706
27	0xbeba0c01	-0.36337283
28	0x3f0125b2	0.50448143
29	0xbe05004f	-0.12988399
30	0xbe740b09	-0.23832335
31	0xbd4b7bb1	-0.04967851
32	0x3ef860b1	0.4851127
33	0xbf1beed6	-0.6091131
34	0x3e029b07	0.1275445
35	0xbe82d23c	-0.2555102
36	0x3e0e3078	0.13885677
37	0x3eea48a1	0.45758536
38	0x3e08e977	0.1337031
39	0xbf117f10	-0.56834507
40	0xbdb79d0c	-0.08965501
41	0x3e04843c	0.12941068
42	0x3ee68bb9	0.45028475
43	0xbcbc1e22	-0.022963587
44	0xbdfac52f	-0.12244641
45	0xbdb0249b	-0.08600732
46	0xbda5cb52	-0.08095421
47	0x3ee18e75	0.44054
48	0xbf081a29	-0.5316492
49	0x3ee56fa2	0.44811732
50	0x3e84a4d4	0.25907004
51	0x3e4d6f4d	0.20061989
52	0xbea475e2	-0.32121187
53	0xbe2f215e	-0.17102572
54	0xbe74cbfc	-0.23905939
55	0x3e04ce43	0.12969308
56	0x3e88df20	0.2673273
57	0x3eb0826b	0.344745
58	0xbea7a4db	-0.32742962
59	0x3c8787b3	0.016544199
60	0xbe200cec	-0.1562993
61	0xbe0c1614	-0.13680297
62	0xbec2a972	-0.38019902
63	0xbeb8cbea	-0.36093074
64	0xbe24e5fe	-0.1610336
65	0xbbf06b9e	-0.0073370477
66	0xbe651d1f	-0.2237439
67	0x3c3d834c	0.011566948
68	0x3e7056a5	0.23470552
69	0xbd81980e	-0.0632783
70	0xbebda636	-0.3704087
71	0x3d91d3ca	0.07120474
72	0xbe017150	-0.12640882
73	0xbda3a387	-0.07990175
74	0xbe43ec57	-0.19133125
75	0x3ed0acfd	0.4075698
76	0xbd3fde40	-0.046842813
77	0xbe4ea392	-0.20179585
78	0x3eab0c0a	0.33407623
79	0xbe7e45dd	-0.24831338
80	0xbeaac0d7	-0.3335025
81	0x3d2f48fd	0.042794216
82	0xbe398073	-0.18115406
83	0xbe8437f9	-0.25823954
84	0xbc49fa35	-0.01232772
85	0x3e30284b	0.1720287
86	0x3e85de53	0.26146182
87	0xbb2e7a94	-0.0026623355
88	0x3e230cc3	0.15922837
89	0xbdae75d0	-0.08518565
90	0x3b8ba4c7	0.0042615863
91	0xbd8f7155	-0.07004038
92	0x3ecc0534	0.3984772
93	0xbe8d63c7	-0.27615187
94	0x3e390a5c	0.18070358
95	0xbc68d3c1	-0.014210642
96	0x3e174fc3	0.1477652
97	0x3e49d3b5	0.19709666
98	0x3e561e2f	0.20909952
99	0xbd87f91b	-0.0663931
100	0x3d9fbef7	0.078000955
101	0xbe4b007d	-0.19824405
102	0xbca878c6	-0.020565402
103	0x3e25091a	0.16116753
104	0xbe3a8c73	-0.1821764
105	0xbe93eff5	-0.2889401
106	0x3eb54eea	0.3541177
107	0xbdc22eaf	-0.094815604
108	0xbe56a8d3	-0.20962839
109	0x3f1a8ecd	0.60374147
110	0x3ee9f5ad	0.45695248
111	0x3e8c51fe	0.27406305
112	0xbd1bbffc	-0.038024887
113	0x3ee6ea53	0.4510065
114	0xbc4d5a08	-0.012533672
115	0x3e0773b2	0.13227728
116	0xbe0453ad	-0.12922545
117	0xbecaeef3	-0.3963543
118	0x3dd966a8	0.10615283
119	0x3eb6da99	0.35713652
120	0x3e64e0b3	0.22351341
121	0xbe90cded	-0.2828211
122	0xbe245b38	-0.16050422
123	0x3ebdead4	0.37093222
124	0xbe7c3c91	-0.24632479
125	0x3da08301	0.07837487
126	0x3cffb826	0.031215739
127	0xbede312f	-0.433969
128	0x3f0a6b81	0.5407029
129	0x3abd119b	0.0014424803
130	0xbecb8181	-0.3974724
131	0x3e890067	0.2675812
132	0x3ed462a9	0.41481522
133	0xbeee01c0	-0.4648571
134	0x3d609ef3	0.054839086
135	0xbebc47d9	-0.36773565
136	0x3e9621de	0.29322714
137	0x3e9e3eef	0.3090739
138	0x3dfcccf5	0.1234378
139	0xbe38eed1	-0.18059851
140	0x3eb3e727	0.35137293
141	0x3ee3a315	0.4446036
142	0x3f15df78	0.5854411
143	0xbe4951a5	-0.19660051
144	0x3e532d03	0.2062264
145	0x3e816c74	0.25278056
146	0xbe3cc129	-0.1843306
147	0x3ef68b60	0.4815321
148	0x3e2dcc1f	0.16972397
149	0x3eae3482	0.34024435
150	0x3dc999c3	0.09843781
151	0x3f9bc009	1.216798
152	0xbdffbfab	-0.1248773
153	0x3edc5263	0.43031606
154	0xbe5c4eeb	-0.2151448
155	0xbe644ad8	-0.22294176
156	0x3dae04ee	0.08497034
157	0xbf113608	-0.5672307
158	0xbe78f886	-0.24313554
159	0x3f09d2e0	0.53837395
160	0x3dd56a91	0.104207166
161	0x3f015352	0.5051776
162	0x3e253451	0.16133238
163	0xbf545291	-0.82938486
164	0xbe9aec66	-0.30258483
165	0x3f1acb70	0.6046667
166	0xbe89b9d9	-0.26899603
167	0xbecceb92	-0.40023476
168	0x3c4918b0	0.012273952
169	0x3e844326	0.2583248
170	0xbe568135	-0.20947726
171	0xbe29ffde	-0.16601512
172	0xbebbe99d	-0.3670167
173	0x3cf4aa47	0.02986635
174	0xbe2b3114	-0.1671794
175	0x3e990882	0.29889303
176	0xbe0aa6eb	-0.13540237
177	0xbf16c0f9	-0.588882
178	0x3efa93ff	0.48941037
179	0xbd8d18ce	-0.06889497
180	0x3e52e45d	0.20594926
181	0x3f087bea	0.5331408
182	0xbf2950ce	-0.66138923
183	0xbc58ed71	-0.013240204
184	0x3f26d62c	0.6517055
185	0x3df8c3cb	0.121467195
186	0x3e8c54cc	0.27408445
187	0x3cccb610	0.024989158
188	0x3e71dea0	0.23620081
189	0x3e9580e0	0.29199886
190	0x3f80a409	1.005006
191	0x3f425434	0.75909734
192	0x3f39d472	0.7258979
193	0xbed6c11d	-0.4194421
194	0x3eabf17f	0.33582684
195	0x3f4126a9	0.75449616
196	0x3e22fc35	0.15916522
197	0x3e5a9add	0.21348138
198	0xbf8657f5	-1.0495592
199	0x3ee12099	0.43970183
200	0x3e8455f4	0.25846827
201	0x3f1451f7	0.5793757
202	0xbdf53410	-0.11972821
203	0xbc59752c	-0.013272565
204	0xbe72bd08	-0.23704922
205	0xbd2f7396	-0.04283484
206	0x3ed696b3	0.4191185
207	0x3edab035	0.4271256
208	0xbec76fc3	-0.38952455
209	0xbe7741bc	-0.2414617
210	0x3dbcde79	0.09222121
211	0xbe25bd83	-0.16185574
212	0xbf030348	-0.5117688
213	0xbf2d1c63	-0.6762144
214	0x3cf3928c	0.029732965
215	0x3ec2cc1d	0.3804635
216	0xbe22609c	-0.15857166
217	0x3ec69134	0.38782656
218	0x3dfc5e30	0.12322652
219	0xbda2a6c5	-0.07941965
220	0xbe1a5f8f	-0.15075515
221	0xbca81c91	-0.020521434
222	0xbe36daca	-0.17856899
223	0x3c965cb5	0.018354753
224	0xbe91ce5a	-0.28477746
225	0x3f95140e	1.1646745
226	0x3ca62287	0.020280136
227	0xbea67bae	-0.32516235
228	0x3eabbc0d	0.3354191
229	0xbea1efc7	-0.31628248
230	0xbf029b16	-0.5101789
231	0xbcbbe6a7	-0.022937132
232	0xbf442a1d	-0.7662676
233	0xbf04a73a	-0.5181767
234	0x396c0a67	0.00022510589
235	0xbe03e0a8	-0.12878668
236	0x3ea42d9f	0.32066056
237	0xbd0dd3a3	-0.03462566
238	0x3e9e9971	0.30976442
239	0xbea2567d	-0.3170661
240	0x3dfcd483	0.12345221
241	0xbe233708	-0.15938962
242	0x3e145728	0.14486372
243	0xbe6935a7	-0.22774373
244	0x3ccb4fec	0.024818383
245	0xbd57ae57	-0.052656498
246	0xbe02b332	-0.1276367
247	0x3edfb34c	0.4369148
248	0x3c849c39	0.016187774
249	0x3e0efad4	0.13962871
250	0x3f12eb9a	0.5739075
251	0xbb346ab7	-0.0027529427
252	0xbea5e84b	-0.32403788
253	0xbf545410	-0.8294077
254	0xbeeae42e	-0.45877212
255	0x3ca351b5	0.019936422

lstm2.weight_hh_l0 f4 [200, 50]
0	0x3eea65b0	0.45780706
1	0x3e88fac9	0.26753834
2	0xbd7e5d77	-0.062100854
3	0x3c858bd2	0.016302023
4	0xbe0c606d	-0.13708659
5	0x3e3def9e	0.18548438
6	0xbe16be61	-0.14721061
7	0x3e1be87f	0.15225409
8	0x3f2a3790	0.6649103
9	0x3eafc245	0.34327903
10	0xbdbc0f7e	-0.091826424
11	0x3cee331b	0.029077103
12	0x3ec8a5e8	0.39189076
13	0x3ef9ae6d	0.4876589
14	0x3daa4f5a	0.08315916
15	0xbf0199ca	-0.5062529
16	0x3d482a2a	0.048868336
17	0xbe3b0a4b	-0.18265645
18	0x3e9b61c2	0.3034802
19	0xbce19573	-0.027537083
20	0x3e7c294f	0.24625133
21	0x3e349905	0.17636497
22	0xbde36fff	-0.11105346
23	0x3cc634c2	0.024195079
24	0xbdb6f3ba	-0.08933206
25	0xbda139a2	-0.07872321
26	0x3ace11a8	0.0015721815
27	0xbee3f5b3	-0.4452339
28	0x3e016d7b	0.1263942
29	0x3ebc4010	0.36767626
30	0xbda47fc9	-0.080321856
31	0xbf1404d8	-0.5781989
32	0x3da3414d	0.079714395
33	0x3e0972e5	0.13422735
34	0x3b8e0fa7	0.004335362
35	0x3f37b64a	0.71762526
36	0x3ebbd985	0.36689392
37	0x3dd5e85b	0.10444709
38	0xbe7dec2a	-0.2479712
39	0xbdacd803	-0.084396385
40	0xbe18388c	-0.14865321
41	0xbedb8319	-0.42873457
42	0x3e46db60	0.19419622
43	0x3f72d0f0	0.94850063
44	0xbeeca154	-0.46216834
45	0xbe15d2eb	-0.1463124
46	0x3e8362b0	0.2566123
47	0xbed8afe4	-0.42321694
48	0x3fcf0191	1.6172353
49	0x3f05e2a8	0.52298975
50	0x3ec04f17	0.3756034
51	0x3df08770	0.11744583
52	0x3e484fc6	0.19561681
53	0xbcfa6edb	-0.030570438
54	0x3e8b36c8	0.27190232
55	0xbe0f6744	-0.14004236
56	0x3d57e34a	0.052706994
57	0x3e4b9b6e	0.1988351
58	0xbdc70c0e	-0.09719096
59	0xbe99f615	-0.30070558
60	0x3e39738d	0.18110485
61	0x3e25ce6d	0.16192026
62	0x3e4c30c1	0.19940473
63	0xbd9006b2	-0.07032527
64	0x3e61c6c5	0.22048481
65	0xbe7b042d	-0.24513312
66	0xbea81458	-0.3282802
67	0x3c8eac8a	0.017416257
68	0xbee34f45	-0.44396415
69	0x3e2ecc50	0.17070127
70	0x3dea79e2	0.114490286
71	0x3de8977c	0.11357018
72	0xbe478d51	-0.19487502
73	0xbe4fc72c	-0.20290822
74	0xbd12d25d	-0.03584515
75	0xbd929491	-0.07157243
76	0x3da9d915	0.08293358
77	0x3d511720	0.051047444
78	0x3f05d1ce	0.5227326
79	0x3e8f481a	0.27984697
80	0xbdc7c8f8	-0.097551286
81	0xbca4c8d1	-0.020115288
82	0x3d49a910	0.049233496
83	0x3e172336	0.14759526
84	0x3d8479c8	0.064685404
85	0x3daad678	0.08341688
86	0x3e1a4068	0.15063632
87	0x3db3af32	0.0877365
88	0xbc55fc15	-0.013060589
89	0xbc59cddd	-0.013293711
90	0x3e266919	0.16251029
91	0xbebe92bb	-0.3722132
92	0x3e5a9ddb	0.2134928
93	0x3e561d27	0.20909558
94	0xbe9c52a3	-0.30531797
95	0xbbf075c1	-0.007338256
96	0x3e8c5df2	0.27415425
97	0xbe296c0d	-0.16545124
98	0x3d70fdb7	0.05883571
99	0xbe113e99	-0.14184035
100	0x3d3af57f	0.04564428
101	0xbbcec2fe	-0.006309866
102	0xbbff0c3e	-0.007783442
103	0xbf731f38	-0.9496951
104	0x3d4bcd5e	0.0497564
105	0xbe10a745	-0.14126308
106	0x3e41762f	0.1889274
107	0xbee1c750	-0.44097376
108	0x3f650ade	0.89469707
109	0x3d98f5d8	0.07468766
110	0x3b9e584c	0.004832303
111	0xbccd1bd0	-0.025037676
112	0x3ad8e31a	0.0016547174
113	0x3f033af0	0.51261806
114	0xbf0ed561	-0.5579434
115	0xbc79ff40	-0.01525861
116	0x3e66d455	0.22541936
117	0x3cc34676	0.02383731
118	0x3eac716d	0.33680287
119	0x3e82b6e6	0.25530165
120	0xbc8f93f2	-0.0175266
121	0xbdaf28fd	-0.0855274
122	0xbda9bde1	-0.0828817
123	0x3f065c52	0.5248462
124	0x3e160cbf	0.146533
125	0xbe3dc9c0	-0.18533993
126	0x3d16149d	0.036640752
127	0x3f14d990	0.58144474
128	0xbe8ac8da	-0.27106363
129	0x3e05ab29	0.13053574
130	0x3dad9034	0.0847477
131	0xbede0f77	-0.43371174
132	0xbebcfb7a	-0.3691061
133	0xbdfa7f38	-0.12231296
134	0xbd755a6c	-0.059900686
135	0x3b6d1e04	0.003618122
136	0x3eccbe04	0.3998872
137	0x3d6a782e	0.05724352
138	0xbd966296	-0.073430225
139	0xbe773eac	-0.24145001
140	0xbe6ac806	-0.22927865
141	0x3cd07c2d	0.025449837
142	0x3f1e473b	0.6182744
143	0x3f3ee792	0.745721
144	0x3e345607	0.17610942
145	0x3dcc07e8	0.099624455
146	0xbe101f7b	-0.14074509
147	0xbe3c459f	-0.18385933
148	0x3d7acce2	0.061230548
149	0x3ec3c7f5	0.38238493
150	0x3dfa6917	0.122270755
151	0x3c4d1008	0.012516029
152	0x3f090cfc	0.5353544
153	0x3ec13974	0.37739146
154	0xbe9bbfd1	-0.30419782
155	0xbf38b4f6	-0.72151124
156	0x3dc28b85	0.094992675
157	0x3e9dcb46	0.30819148
158	0x3ea517ba	0.32244664
159	0x3f3ca40c	0.73687816
160	0xbebef1ce	-0.37293857
161	0xbf3b4fed	-0.7316883
162	0x3f0544fe	0.520584
163	0x3ee901b8	0.45509124
164	0x3e4e33c4	0.20136935
165	0xbd6a49c0	-0.05719924
166	0x3f799362	0.97490513
167	0xbdb33c76	-0.087517664
168	0x3f6ca869	0.92444474
169	0xbb30f775	-0.0027002965
170	0xbaf2f819	-0.0018537074
171	0x3d578dc6	0.05262544
172	0x3f2b4928	0.669085
173	0x3e7e8383	0.24854855
174	0x3f0fea89	0.5621725
175	0xbdad7da9	-0.084712334
176	0xbec68f33	-0.38781127
177	0xbe3a64bf	-0.18202494
178	0xbf17e68b	-0.59336156
179	0xbd7d622e	-0.06186121
180	0x3e9bc5af	0.30424258
181	0xbd91ec2d	-0.07125125
182	0xbe9cece4	-0.30649483
183	0xbe732a86	-0.2374669
184	0x3e4006ee	0.18752643
185	0xbda72707	-0.08161741
186	0xbedbb6c8	-0.4291289
187	0x3ec72c88	0.38901162
188	0xbf0257b8	-0.509151
189	0xbe844101	-0.25830844
190	0xbe183965	-0.14865644
191	0x3f4b8fa8	0.7951608
192	0xbeb7d10c	-0.35901678
193	0x3f581261	0.84403044
194	0x3d83b3bf	0.06430768
195	0x3eeaabc0	0.4583416
196	0xbeceeb9f	-0.4041414
197	0x3eef2404	0.46707165
198	0x3f5fd2f6	0.87431276
199	0x3f421c5c	0.7582452
200	0x3de76df0	0.11300266
201	0xbe2032ee	-0.15644428
202	0xbbed317a	-0.007238564
203	0xbdc29070	-0.095002055
204	0xbdb3c616	-0.08778016
205	0xbe65553a	-0.22395793
206	0xbe52a65d	-0.20571275
207	0x3d0ddc0d	0.034633685
208	0xbe01dc1d	-0.12681623
209	0xbe8d70fb	-0.2762526
210	0xbe83db51	-0.25753263
211	0xbe0697a8	-0.1314379
212	0x3e217ac1	0.15769483
213	0x3e996e31	0.29966882
214	0x3e893658	0.26799273
215	0xbe90a5da	-0.28251535
216	0x3e400079	0.1875018
217	0xbe14a118	-0.14514577
218	0x3e012968	0.12613451
219	0x3e2e9162	0.17047647
220	0xbe45e79b	-0.19326632
221	0xbe9ea0d5	-0.3098208
222	0x3da0195b	0.07817336
223	0x3e0b496e	0.1360223
224	0xbe2cba11	-0.16867854
225	0x3e8fd4d6	0.28092068
226	0xbe0b0822	-0.13577321
227	0xbcdc09d0	-0.026860148
228	0xbe840456	-0.25784558
229	0xbde41fb3	-0.11138859
230	0xbd844aba	-0.064595655
231	0x3e795e29	0.24352325
232	0xbe6b20a0	-0.22961664
233	0x3eb05def	0.34446666
234	0xbe96dbc3	-0.2946454
235	0x3e1f5b63	0.15562205
236	0x3f6ab1de	0.91677654
237	0x3e0fb52f	0.1403396
238	0x3e82fbc1	0.25582698
239	0xbd37d2ae	-0.044878654
240	0xbe2afc60	-0.16697836
241	0x3efba7a5	0.4915134
242	0xbd0915ea	-0.033468165
243	0xbe08ab90	-0.13346696
244	0xbec0a9ef	-0.3762965
245	0x3e161baa	0.1465899
246	0x3c2f3bb5	0.010695388
247	0xbf06049a	-0.5235077
248	0x3e02cc12	0.12773159
249	0x3e40e366	0.18836746
250	0x3d21767d	0.03941964
251	0x3e34c491	0.17653109
252	0xbe02fc1c	-0.12791485
253	0x3f1b931b	0.6077134
254	0x3ec3480a	0.381409
255	0xbeccc0bd	-0.39990798

lstm2.bias_ih_l0 f4 [200]
0	0xbebc3b2d	-0.36763898
1	0x3dea1a79	0.114308305
2	0xbe8593dd	-0.26089373
3	0xbd1296eb	-0.035788458
4	0xbcbe3810	-0.023220092
5	0xbda6260d	-0.08112726
6	0xbe9fae4e	-0.3118767
7	0xbe3932e5	-0.18085821
8	0x3d6b21e9	0.057405386
9	0xbf0ebb29	-0.55754334
10	0xbecb916d	-0.3975939
11	0xbe716ef6	-0.23577484
12	0xbe0d399c	-0.13791507
13	0xbe69a916	-0.22818407
14	0xbdfefcf8	-0.12450594
15	0xbe847b93	-0.2587553
16	0xbef69e7e	-0.48167795
17	0xbdb57bc1	-0.08861495
18	0xbeb4f0ba	-0.3533991
19	0x3d9aaf96	0.075530216
20	0x3e9088a6	0.28229254
21	0xbdf13367	-0.11777382
22	0xbd803da3	-0.06261756
23	0xbe469b3d	-0.19395156
24	0x3d53d493	0.0517164
25	0x3d5b17a1	0.05348933
26	0xbea4bea6	-0.32176703
27	0xbce5db97	-0.02805881
28	0xbe9a6e3d	-0.3016223
29	0xbe3780be	-0.17920205
30	0x3d896ab9	0.06709809
31	0xbe3670cf	-0.1781647
32	0xbec0697a	-0.37580472
33	0x3de0c27f	0.10974597
34	0x3e51e079	0.20495786
35	0xbe1edb42	-0.15513328
36	0xbe8e414f	-0.27784202
37	0x3eb0dd4a	0.3454383
38	0x3e0f428b	0.13990228
39	0x3e0b1bc2	0.13584808
40	0x3dac6a76	0.08418743
41	0xbe90bba8	-0.2826817
42	0xbe3d4a6c	-0.18485421
43	0xbe9cc087	-0.30615637
44	0xbe191ad7	-0.14951645
45	0xbe9be45f	-0.3044767
46	0xbe825a38	-0.25459456
47	0xbe085343	-0.13313012
48	0x3e895dbc	0.26829326
49	0xbea49341	-0.32143596
50	0xbeb2d924	-0.3493129
51	0xbe2619f6	-0.16220841
52	0xbe68f7eb	-0.22750823
53	0xbdb305de	-0.087413535
54	0xbe87eb97	-0.26546928
55	0xbe204511	-0.15651347
56	0xbe19ae13	-0.1500781
57	0xbe2f78a9	-0.17135872
58	0xbe2c27b9	-0.16812028
59	0xbf0d5dfb	-0.5522153
60	0xbebf732e	-0.37392563
61	0xbe465721	-0.19369175
62	0xbf4523ef	-0.77007955
63	0xbdd9b486	-0.10630135
64	0xbe03f155	-0.1288503
65	0xbde73d03	-0.11290934
66	0xbe7903ee	-0.24317905
67	0xbda7ba0f	-0.08189785
68	0xbeed5d59	-0.4636028
69	0xbe58e7ad	-0.21182127
70	0xbcdf3560	-0.02724713
71	0xbe3a6216	-0.1820148
72	0xbe9ea3ae	-0.30984253
73	0xbddeff79	-0.10888571
74	0x3d244a69	0.040110026
75	0xbdc211cf	-0.09476053
76	0xbd908f6f	-0.07058608
77	0xbdd93238	-0.106052816
78	0xbe53eb82	-0.20695308
79	0x3c8aacdf	0.016928134
80	0xbe1e9423	-0.15486197
81	0xbe80edd8	-0.2518146
82	0xbea34ead	-0.31895962
83	0xbe67f3b2	-0.22651556
84	0x3c1c0cbb	0.00952452
85	0xbe235e6f	-0.15953992
86	0xbe5b847b	-0.21437256
87	0xbdf48477	-0.11939328
88	0xbdccb6ac	-0.099957794
89	0xbd5c0693	-0.053717207
90	0xbde62ea1	-0.112393625
91	0xbe9453c3	-0.28970155
92	0xbe66f20e	-0.22553274
93	0xbe1f26cb	-0.15542142
94	0xbea86dd3	-0.3289629
95	0xbdb6d4ff	-0.089273445
96	0xbea9317b	-0.33045563
97	0xbe7b8afa	-0.24564734
98	0xbd329c79	-0.043606255
99	0xbd117a40	-0.035516977
100	0x3c4e2ec1	0.012584389
101	0x3d6dd5c8	0.058065206
102	0x3d0d98a8	0.034569412
103	0xbc3868cc	-0.011255454
104	0x3e1dbd81	0.15404321
105	0x3ad349b3	0.0016119987
106	0xbd0cb140	-0.034348726
107	0x3c55bb44	0.013045136
108	0xbd8f4cfb	-0.06997105
109	0x3e064282	0.13111308
110	0x3d643f4b	0.055724423
111	0xbdf3ffee	-0.11914049
112	0x3d685435	0.05672093
113	0xbdb875ac	-0.09006819
114	0xbdb427ce	-0.08796655
115	0x3c9f3467	0.019434167
116	0x3d32ce23	0.04365362
117	0x3dbc01f4	0.0918006
118	0xbcf02f12	-0.02931932
119	0xbe57bf46	-0.21069059
120	0x3cdd771b	0.027034333
121	0x3dd065b2	0.10175647
122	0xbdc35548	-0.095377505
123	0xbda80dee	-0.08205782
124	0xbe34c507	-0.17653285
125	0x3de3ac0c	0.111168
126	0xbd91d8b6	-0.071214125
127	0x3c5d87b8	0.013521127
128	0x3d5dd971	0.054162446
129	0xbd989315	-0.07449929
130	0xbd9468a9	-0.07246525
131	0xbd97d2a9	-0.07413227
132	0xbe0d4885	-0.13797195
133	0xbd8a1277	-0.06741803
134	0xbdef82a4	-0.116948396
135	0x3cf6a666	0.030108642
136	0xbe92af5d	-0.28649417
137	0xbd83455a	-0.06409712
138	0x3e1cc5a2	0.15309766
139	0xbe16f408	-0.14741528
140	0x3df4586e	0.11930929
141	0x3e5099f7	0.20371233
142	0xbb95ed3d	-0.0045754
143	0xbd6d2d8c	-0.057904765
144	0x3e1d1ded	0.15343447
145	0xba44e5dc	-0.00075110584
146	0xbd0c41b9	-0.034242366
147	0x3eb8e388	0.36111093
148	0x3db6745c	0.089089125
149	0xbdabaeb0	-0.08382928
150	0xbe2a5cd2	-0.1663697
151	0x3e1ccadc	0.1531176
152	0xbee4a2a0	-0.44655323
153	0xbe3052ff	-0.1721916
154	0xbe6e54cc	-0.23274535
155	0xbd101aa4	-0.035181656
156	0xbdc11d6e	-0.094294414
157	0xbebdfe30	-0.37107992
158	0xbddff0a0	-0.109345675
159	0xbf07c9c1	-0.5304223
160	0xbed0e293	-0.40797862
161	0xbd406c0a	-0.046978034
162	0xbe1d6ff2	-0.15374735
163	0xbe499b2c	-0.196881
164	0xbdae7720	-0.08518815
165	0xbdb5f2e9	-0.08884222
166	0xbe509f08	-0.20373166
167	0xbea7566f	-0.3268313
168	0xbe85c54c	-0.26127088
169	0xbd0256b2	-0.03182096
170	0x3dcc8216	0.099857494
171	0xbdc762bf	-0.09735631
172	0xbdf20a74	-0.118184
173	0xbe8ea7e9	-0.2786248
174	0x3cdbcb57	0.026830358
175	0xbd313a99	-0.043268774
176	0xbec56a05	-0.3855745
177	0xbd945e3e	-0.07244538
178	0xbe91f6a2	-0.28508478
179	0xbde5fa85	-0.112294234
180	0x3e5ba344	0.21449
181	0xbd151e0f	-0.03640562
182	0xbe061aa0	-0.13096094
183	0xbde51649	-0.11185891
184	0x3e44bfc1	0.19213773
185	0xbc0a1f8b	-0.008430372
186	0xbd122278	-0.035677403
187	0x3ec268db	0.37970623
188	0x3e39ccee	0.1814458
189	0xbd7aebd8	-0.061260074
190	0x3e4510fa	0.19244757
191	0xbe0cc4b4	-0.13746911
192	0x3b9aed23	0.004727976
193	0xbd098eed	-0.03358357
194	0xbd64a970	-0.05582565
195	0xbdfbcb22	-0.12294604
196	0xbe6599a3	-0.22421889
197	0xbdaf755a	-0.08567305
198	0x3d8136a5	0.06309251
199	0x3d493351	0.049121205

lstm2.bias_hh_l0 f4 [200]
0	0xbebfdcb3	-0.37473068
1	0x3d84e19b	0.06488343
2	0xbea92043	-0.33032426
3	0xbdc1dbf2	-0.09465779
4	0xbd2c3250	-0.04204017
5	0xbdcf6463	-0.10126569
6	0xbeb2933e	-0.34877962
7	0xbea8e59a	-0.32987672
8	0xbdb77efa	-0.08959766
9	0xbebdc674	-0.3706547
10	0xbead14a7	-0.3380482
11	0xbe240b2c	-0.16019887
12	0xbe0b2830	-0.13589549
13	0xbe786974	-0.24258977
14	0x3d485376	0.04890772
15	0xbe5c9679	-0.21541776
16	0xbe873d9e	-0.26414198
17	0xbe3d359f	-0.18477486
18	0xbe94c84c	-0.29059064
19	0x3dc003c8	0.09375721
20	0x3ddfd2fb	0.10928913
21	0xbdf79917	-0.120897464
22	0xbe7b6099	-0.24548568
23	0xbe1210bb	-0.14264195
24	0xbe3440d6	-0.17602858
25	0x3e312ca7	0.1730219
26	0xbe9add38	-0.30246902
27	0xbe5c779f	-0.21530007
28	0xbed01153	-0.40638217
29	0xbe89c570	-0.26908445
30	0x3d9d1655	0.07670275
31	0xbe364381	-0.17799188
32	0xbe8d08fa	-0.2754591
33	0x3de5d19f	0.11221623
34	0x3de5cda4	0.112208635
35	0xbe966289	-0.2937205
36	0xbe79b79b	-0.24386446
37	0x3e9d08b8	0.30670714
38	0x3d4f38ac	0.050591156
39	0x3ddea20f	0.10870754
40	0x3d80b89c	0.062852114
41	0xbecdeb18	-0.40218425
42	0xbd295e7d	-0.041349877
43	0xbe934037	-0.2875993
44	0xbe06983b	-0.13144009
45	0xbec1431b	-0.3774651
46	0xbe5e0c8f	-0.21684478
47	0xbe733987	-0.23752414
48	0x3d23acfa	0.039959885
49	0xbdea13e9	-0.11429579
50	0xbea71d5c	-0.32639587
51	0xbe12f486	-0.14351091
52	0xbebe3667	-0.3715088
53	0xbe5b847d	-0.21437259
54	0xbe33845c	-0.1753096
55	0xbdb0d754	-0.086348206
56	0xbeb5ea3f	-0.35530278
57	0xbdef0391	-0.11670602
58	0xbed5863a	-0.4170397
59	0xbedcab40	-0.43099403
60	0xbe5fb774	-0.21847326
61	0xbea09d97	-0.31370232
62	0xbf2b9f87	-0.67040294
63	0xbe8a572d	-0.27019635
64	0xbe85d9a1	-0.261426
65	0xbdcc366d	-0.099713184
66	0xbd761286	-0.06007626
67	0xbe87fb8f	-0.2655911
68	0xbebb06f7	-0.3652875
69	0xbd322fe7	-0.043502714
70	0xbca995ea	-0.020701367
71	0xbd4cd9a0	-0.05001223
72	0xbda5bb19	-0.08092327
73	0xbe81d5b8	-0.25358367
74	0xbe53185a	-0.20614758
75	0xbe8a1e11	-0.26976064
76	0xbd8ab609	-0.06773002
77	0xbe376cea	-0.17912641
78	0xbed8454f	-0.42240378
79	0xbe7544d4	-0.23952037
80	0xbde36796	-0.11103742
81	0xbbc326a1	-0.0059555327
82	0xbef19a65	-0.47188106
83	0xbe58bd86	-0.21166047
84	0xbe7e2caa	-0.24821725
85	0xbe438c47	-0.1909648
86	0xbe1819bf	-0.14853571
87	0xbdc48121	-0.09594942
88	0xbe28e02e	-0.16491768
89	0xbd2dad67	-0.042401697
90	0xbe5731b0	-0.21015048
91	0xbe3a6edb	-0.1820635
92	0xbd8315e5	-0.064006604
93	0xbd509433	-0.050922584
94	0xbe67df90	-0.22643876
95	0xbd0deec2	-0.034651525
96	0xbe41d144	-0.18927485
97	0xbee05e6a	-0.43822032
98	0xbe2ead31	-0.17058255
99	0x3d47f6c2	0.04881931
100	0xbdabd686	-0.083905265
101	0x3e244c28	0.16044676
102	0xbdad5b26	-0.08464651
103	0xbab1e20e	-0.0013571398
104	0x3d228aaf	0.03968304
105	0x3c2eb39e	0.010662941
106	0x3dba8625	0.09107617
107	0xbdb9d1f6	-0.0907325
108	0xbdb9120d	-0.09036646
109	0x3d64b6e3	0.055838477
110	0x3c34e628	0.011041202
111	0x3d4f3ac5	0.050593156
112	0x3db0f920	0.08641267
113	0xbd869ef5	-0.065732874
114	0x3dfd26f8	0.12360948
115	0x3b1a3796	0.0023531667
116	0x3e3c51ed	0.18390627
117	0x3de2e268	0.1107834
118	0x3c0a8545	0.0084546255
119	0xbd46f0ab	-0.048569363
120	0x3e72e79a	0.23721161
121	0x3d2a7473	0.04161496
122	0xbe377e6f	-0.17919324
123	0x3bbcc77d	0.0057610855
124	0xbc91819b	-0.017761996
125	0x3e15c8db	0.14627402
126	0x3e0782c7	0.13233481
127	0xbdf972d0	-0.12180102
128	0xbc6b1235	-0.014347603
129	0x3ce60d84	0.028082617
130	0xbe2c4c14	-0.16825897
131	0x3d57c828	0.05268112
132	0x3cda21cc	0.026627444
133	0xbd9a5139	-0.07535023
134	0xbdab80d6	-0.08374183
135	0xbd8331e0	-0.06405997
136	0xbe641cea	-0.22276655
137	0xbe302e0f	-0.1720507
138	0x3e03e890	0.12881684
139	0xbdc15c01	-0.094413765
140	0x3db451fc	0.088047
141	0x3dfcc16c	0.1234158
142	0xbda3002a	-0.07959016
143	0xbe49f2a8	-0.19721472
144	0x3c383c38	0.011244826
145	0xbd0b1103	-0.03395177
146	0xbd13a4b1	-0.036045734
147	0x3eb57a3c	0.3544482
148	0x3e085846	0.13314924
149	0x3ca8eab2	0.020619724
150	0xbe46fd96	-0.19432673
151	0x3e20a04c	0.15686148
152	0xbef49734	-0.4777161
153	0x3cb1cbee	0.021703687
154	0xbe3f2804	-0.18667608
155	0xbdf5c340	-0.120001316
156	0xbe4f660d	-0.20253773
157	0xbebde5c2	-0.37089354
158	0x3cb1211c	0.021622233
159	0xbedb4914	-0.42829192
160	0xbe5ede0d	-0.21764393
161	0xbdbdbd6c	-0.09264645
162	0xbe3dd706	-0.18539056
163	0xbdbcb602	-0.09214403
164	0xbd64532c	-0.05574338
165	0xbe18c239	-0.1491784
166	0xbe98ba5e	-0.29829687
167	0xbea2a989	-0.3176997
168	0xbeb80bb0	-0.35946417
169	0xbdb94d8f	-0.09047996
170	0x3e808a9b	0.25105748
171	0x3d9423c9	0.07233388
172	0xbc7c3675	-0.015393843
173	0xbea5bf5b	-0.32372555
174	0xbdd598ed	-0.10429559
175	0xbda8ddf8	-0.08245462
176	0xbea2e309	-0.3181384
177	0xbe16fea6	-0.14745578
178	0xbee53c38	-0.44772506
179	0x3d03b40e	0.032154135
180	0x3e7ed147	0.2488452
181	0xbe38632a	-0.18006578
182	0xbde51ccf	-0.111871354
183	0xbde0b80b	-0.109726034
184	0x3e0ba539	0.13637246
185	0xbe078fea	-0.13238493
186	0xbe16c874	-0.14724904
187	0x3e985ab1	0.29756692
188	0x3ec1e1d9	0.3786762
189	0xbce8e024	-0.028427191
190	0x3dce7540	0.100809574
191	0xbe8b4231	-0.27198938
192	0x3cf0a971	0.029377671
193	0x3d28251b	0.04105101
194	0xbdcf46d5	-0.10120932
195	0xbe1a87dc	-0.15090889
196	0xbe5f56e3	-0.21810488
197	0xbdf690ba	-0.12039323
198	0x3e70f401	0.2353058
199	0x3cd2a0c4	0.025711425
